<net name="mobilenetv2ssdlitev2_pytorch" version="10">
  <layers>
    <layer id="0" name="loadConstant1/Output_0/Data_/copy_const" type="Const" version="opset1">
      <data element_type="f32" offset="0" shape="1,2,3234,1" size="25872" />
      <output>
        <port id="1" precision="FP32">
          <dim>1</dim>
          <dim>2</dim>
          <dim>3234</dim>
          <dim>1</dim>
        </port>
      </output>
    </layer>
    <layer id="1" name="466/negate_/Output_0/Data_/copy_const" type="Const" version="opset1">
      <data element_type="f32" offset="25872" shape="1,3,1,1" size="12" />
      <output>
        <port id="1" precision="FP32">
          <dim>1</dim>
          <dim>3</dim>
          <dim>1</dim>
          <dim>1</dim>
        </port>
      </output>
    </layer>
    <layer id="2" name="input" type="Parameter" version="opset1">
      <data element_type="f32" shape="1,3,320,320" />
      <output>
        <port id="0" precision="FP32">
          <dim>1</dim>
          <dim>3</dim>
          <dim>320</dim>
          <dim>320</dim>
        </port>
      </output>
    </layer>
    <layer id="3" name="466/add_" type="Add" version="opset1">
      <input>
        <port id="0">
          <dim>1</dim>
          <dim>3</dim>
          <dim>1</dim>
          <dim>1</dim>
        </port>
        <port id="1">
          <dim>1</dim>
          <dim>3</dim>
          <dim>320</dim>
          <dim>320</dim>
        </port>
      </input>
      <output>
        <port id="2" precision="FP32">
          <dim>1</dim>
          <dim>3</dim>
          <dim>320</dim>
          <dim>320</dim>
        </port>
      </output>
    </layer>
    <layer id="4" name="onnx_initializer_node_744/Output_0/Data__const" type="Const" version="opset1">
      <data element_type="f32" offset="25884" shape="32,3,3,3" size="3456" />
      <output>
        <port id="1" precision="FP32">
          <dim>32</dim>
          <dim>3</dim>
          <dim>3</dim>
          <dim>3</dim>
        </port>
      </output>
    </layer>
    <layer id="5" name="467/WithoutBiases" type="Convolution" version="opset1">
      <data dilations="1,1" output_padding="0,0" pads_begin="1,1" pads_end="1,1" strides="2,2" />
      <input>
        <port id="0">
          <dim>1</dim>
          <dim>3</dim>
          <dim>320</dim>
          <dim>320</dim>
        </port>
        <port id="1">
          <dim>32</dim>
          <dim>3</dim>
          <dim>3</dim>
          <dim>3</dim>
        </port>
      </input>
      <output>
        <port id="2" precision="FP32">
          <dim>1</dim>
          <dim>32</dim>
          <dim>160</dim>
          <dim>160</dim>
        </port>
      </output>
    </layer>
    <layer id="6" name="467/Dims4863/copy_const" type="Const" version="opset1">
      <data element_type="f32" offset="29340" shape="1,32,1,1" size="128" />
      <output>
        <port id="1" precision="FP32">
          <dim>1</dim>
          <dim>32</dim>
          <dim>1</dim>
          <dim>1</dim>
        </port>
      </output>
    </layer>
    <layer id="7" name="467" type="Add" version="opset1">
      <input>
        <port id="0">
          <dim>1</dim>
          <dim>32</dim>
          <dim>160</dim>
          <dim>160</dim>
        </port>
        <port id="1">
          <dim>1</dim>
          <dim>32</dim>
          <dim>1</dim>
          <dim>1</dim>
        </port>
      </input>
      <output>
        <port id="2" precision="FP32">
          <dim>1</dim>
          <dim>32</dim>
          <dim>160</dim>
          <dim>160</dim>
        </port>
      </output>
    </layer>
    <layer id="8" name="469" type="ReLU" version="opset1">
      <input>
        <port id="0">
          <dim>1</dim>
          <dim>32</dim>
          <dim>160</dim>
          <dim>160</dim>
        </port>
      </input>
      <output>
        <port id="1" precision="FP32">
          <dim>1</dim>
          <dim>32</dim>
          <dim>160</dim>
          <dim>160</dim>
        </port>
      </output>
    </layer>
    <layer id="9" name="onnx_initializer_node_748/Output_0/Data__const" type="Const" version="opset1">
      <data element_type="f32" offset="29468" shape="32,32,1,1" size="4096" />
      <output>
        <port id="1" precision="FP32">
          <dim>32</dim>
          <dim>32</dim>
          <dim>1</dim>
          <dim>1</dim>
        </port>
      </output>
    </layer>
    <layer id="10" name="470/WithoutBiases" type="Convolution" version="opset1">
      <data dilations="1,1" output_padding="0,0" pads_begin="0,0" pads_end="0,0" strides="1,1" />
      <input>
        <port id="0">
          <dim>1</dim>
          <dim>32</dim>
          <dim>160</dim>
          <dim>160</dim>
        </port>
        <port id="1">
          <dim>32</dim>
          <dim>32</dim>
          <dim>1</dim>
          <dim>1</dim>
        </port>
      </input>
      <output>
        <port id="2" precision="FP32">
          <dim>1</dim>
          <dim>32</dim>
          <dim>160</dim>
          <dim>160</dim>
        </port>
      </output>
    </layer>
    <layer id="11" name="470/Dims4551/copy_const" type="Const" version="opset1">
      <data element_type="f32" offset="33564" shape="1,32,1,1" size="128" />
      <output>
        <port id="1" precision="FP32">
          <dim>1</dim>
          <dim>32</dim>
          <dim>1</dim>
          <dim>1</dim>
        </port>
      </output>
    </layer>
    <layer id="12" name="470" type="Add" version="opset1">
      <input>
        <port id="0">
          <dim>1</dim>
          <dim>32</dim>
          <dim>160</dim>
          <dim>160</dim>
        </port>
        <port id="1">
          <dim>1</dim>
          <dim>32</dim>
          <dim>1</dim>
          <dim>1</dim>
        </port>
      </input>
      <output>
        <port id="2" precision="FP32">
          <dim>1</dim>
          <dim>32</dim>
          <dim>160</dim>
          <dim>160</dim>
        </port>
      </output>
    </layer>
    <layer id="13" name="472" type="ReLU" version="opset1">
      <input>
        <port id="0">
          <dim>1</dim>
          <dim>32</dim>
          <dim>160</dim>
          <dim>160</dim>
        </port>
      </input>
      <output>
        <port id="1" precision="FP32">
          <dim>1</dim>
          <dim>32</dim>
          <dim>160</dim>
          <dim>160</dim>
        </port>
      </output>
    </layer>
    <layer id="14" name="1544715450_const" type="Const" version="opset1">
      <data element_type="f32" offset="33692" shape="32,1,1,3,3" size="1152" />
      <output>
        <port id="1" precision="FP32">
          <dim>32</dim>
          <dim>1</dim>
          <dim>1</dim>
          <dim>3</dim>
          <dim>3</dim>
        </port>
      </output>
    </layer>
    <layer id="15" name="473/WithoutBiases" type="GroupConvolution" version="opset1">
      <data dilations="1,1" output_padding="0,0" pads_begin="1,1" pads_end="1,1" strides="1,1" />
      <input>
        <port id="0">
          <dim>1</dim>
          <dim>32</dim>
          <dim>160</dim>
          <dim>160</dim>
        </port>
        <port id="1">
          <dim>32</dim>
          <dim>1</dim>
          <dim>1</dim>
          <dim>3</dim>
          <dim>3</dim>
        </port>
      </input>
      <output>
        <port id="2" precision="FP32">
          <dim>1</dim>
          <dim>32</dim>
          <dim>160</dim>
          <dim>160</dim>
        </port>
      </output>
    </layer>
    <layer id="16" name="473/Dims4887/copy_const" type="Const" version="opset1">
      <data element_type="f32" offset="34844" shape="1,32,1,1" size="128" />
      <output>
        <port id="1" precision="FP32">
          <dim>1</dim>
          <dim>32</dim>
          <dim>1</dim>
          <dim>1</dim>
        </port>
      </output>
    </layer>
    <layer id="17" name="473" type="Add" version="opset1">
      <input>
        <port id="0">
          <dim>1</dim>
          <dim>32</dim>
          <dim>160</dim>
          <dim>160</dim>
        </port>
        <port id="1">
          <dim>1</dim>
          <dim>32</dim>
          <dim>1</dim>
          <dim>1</dim>
        </port>
      </input>
      <output>
        <port id="2" precision="FP32">
          <dim>1</dim>
          <dim>32</dim>
          <dim>160</dim>
          <dim>160</dim>
        </port>
      </output>
    </layer>
    <layer id="18" name="475" type="ReLU" version="opset1">
      <input>
        <port id="0">
          <dim>1</dim>
          <dim>32</dim>
          <dim>160</dim>
          <dim>160</dim>
        </port>
      </input>
      <output>
        <port id="1" precision="FP32">
          <dim>1</dim>
          <dim>32</dim>
          <dim>160</dim>
          <dim>160</dim>
        </port>
      </output>
    </layer>
    <layer id="19" name="onnx_initializer_node_756/Output_0/Data__const" type="Const" version="opset1">
      <data element_type="f32" offset="34972" shape="16,32,1,1" size="2048" />
      <output>
        <port id="1" precision="FP32">
          <dim>16</dim>
          <dim>32</dim>
          <dim>1</dim>
          <dim>1</dim>
        </port>
      </output>
    </layer>
    <layer id="20" name="476/WithoutBiases" type="Convolution" version="opset1">
      <data dilations="1,1" output_padding="0,0" pads_begin="0,0" pads_end="0,0" strides="1,1" />
      <input>
        <port id="0">
          <dim>1</dim>
          <dim>32</dim>
          <dim>160</dim>
          <dim>160</dim>
        </port>
        <port id="1">
          <dim>16</dim>
          <dim>32</dim>
          <dim>1</dim>
          <dim>1</dim>
        </port>
      </input>
      <output>
        <port id="2" precision="FP32">
          <dim>1</dim>
          <dim>16</dim>
          <dim>160</dim>
          <dim>160</dim>
        </port>
      </output>
    </layer>
    <layer id="21" name="476/Dims4893/copy_const" type="Const" version="opset1">
      <data element_type="f32" offset="37020" shape="1,16,1,1" size="64" />
      <output>
        <port id="1" precision="FP32">
          <dim>1</dim>
          <dim>16</dim>
          <dim>1</dim>
          <dim>1</dim>
        </port>
      </output>
    </layer>
    <layer id="22" name="476" type="Add" version="opset1">
      <input>
        <port id="0">
          <dim>1</dim>
          <dim>16</dim>
          <dim>160</dim>
          <dim>160</dim>
        </port>
        <port id="1">
          <dim>1</dim>
          <dim>16</dim>
          <dim>1</dim>
          <dim>1</dim>
        </port>
      </input>
      <output>
        <port id="2" precision="FP32">
          <dim>1</dim>
          <dim>16</dim>
          <dim>160</dim>
          <dim>160</dim>
        </port>
      </output>
    </layer>
    <layer id="23" name="onnx_initializer_node_760/Output_0/Data__const" type="Const" version="opset1">
      <data element_type="f32" offset="37084" shape="96,16,1,1" size="6144" />
      <output>
        <port id="1" precision="FP32">
          <dim>96</dim>
          <dim>16</dim>
          <dim>1</dim>
          <dim>1</dim>
        </port>
      </output>
    </layer>
    <layer id="24" name="478/WithoutBiases" type="Convolution" version="opset1">
      <data dilations="1,1" output_padding="0,0" pads_begin="0,0" pads_end="0,0" strides="1,1" />
      <input>
        <port id="0">
          <dim>1</dim>
          <dim>16</dim>
          <dim>160</dim>
          <dim>160</dim>
        </port>
        <port id="1">
          <dim>96</dim>
          <dim>16</dim>
          <dim>1</dim>
          <dim>1</dim>
        </port>
      </input>
      <output>
        <port id="2" precision="FP32">
          <dim>1</dim>
          <dim>96</dim>
          <dim>160</dim>
          <dim>160</dim>
        </port>
      </output>
    </layer>
    <layer id="25" name="478/Dims4989/copy_const" type="Const" version="opset1">
      <data element_type="f32" offset="43228" shape="1,96,1,1" size="384" />
      <output>
        <port id="1" precision="FP32">
          <dim>1</dim>
          <dim>96</dim>
          <dim>1</dim>
          <dim>1</dim>
        </port>
      </output>
    </layer>
    <layer id="26" name="478" type="Add" version="opset1">
      <input>
        <port id="0">
          <dim>1</dim>
          <dim>96</dim>
          <dim>160</dim>
          <dim>160</dim>
        </port>
        <port id="1">
          <dim>1</dim>
          <dim>96</dim>
          <dim>1</dim>
          <dim>1</dim>
        </port>
      </input>
      <output>
        <port id="2" precision="FP32">
          <dim>1</dim>
          <dim>96</dim>
          <dim>160</dim>
          <dim>160</dim>
        </port>
      </output>
    </layer>
    <layer id="27" name="480" type="ReLU" version="opset1">
      <input>
        <port id="0">
          <dim>1</dim>
          <dim>96</dim>
          <dim>160</dim>
          <dim>160</dim>
        </port>
      </input>
      <output>
        <port id="1" precision="FP32">
          <dim>1</dim>
          <dim>96</dim>
          <dim>160</dim>
          <dim>160</dim>
        </port>
      </output>
    </layer>
    <layer id="28" name="1539915402_const" type="Const" version="opset1">
      <data element_type="f32" offset="43612" shape="96,1,1,3,3" size="3456" />
      <output>
        <port id="1" precision="FP32">
          <dim>96</dim>
          <dim>1</dim>
          <dim>1</dim>
          <dim>3</dim>
          <dim>3</dim>
        </port>
      </output>
    </layer>
    <layer id="29" name="481/WithoutBiases" type="GroupConvolution" version="opset1">
      <data dilations="1,1" output_padding="0,0" pads_begin="1,1" pads_end="1,1" strides="2,2" />
      <input>
        <port id="0">
          <dim>1</dim>
          <dim>96</dim>
          <dim>160</dim>
          <dim>160</dim>
        </port>
        <port id="1">
          <dim>96</dim>
          <dim>1</dim>
          <dim>1</dim>
          <dim>3</dim>
          <dim>3</dim>
        </port>
      </input>
      <output>
        <port id="2" precision="FP32">
          <dim>1</dim>
          <dim>96</dim>
          <dim>80</dim>
          <dim>80</dim>
        </port>
      </output>
    </layer>
    <layer id="30" name="481/Dims4707/copy_const" type="Const" version="opset1">
      <data element_type="f32" offset="47068" shape="1,96,1,1" size="384" />
      <output>
        <port id="1" precision="FP32">
          <dim>1</dim>
          <dim>96</dim>
          <dim>1</dim>
          <dim>1</dim>
        </port>
      </output>
    </layer>
    <layer id="31" name="481" type="Add" version="opset1">
      <input>
        <port id="0">
          <dim>1</dim>
          <dim>96</dim>
          <dim>80</dim>
          <dim>80</dim>
        </port>
        <port id="1">
          <dim>1</dim>
          <dim>96</dim>
          <dim>1</dim>
          <dim>1</dim>
        </port>
      </input>
      <output>
        <port id="2" precision="FP32">
          <dim>1</dim>
          <dim>96</dim>
          <dim>80</dim>
          <dim>80</dim>
        </port>
      </output>
    </layer>
    <layer id="32" name="483" type="ReLU" version="opset1">
      <input>
        <port id="0">
          <dim>1</dim>
          <dim>96</dim>
          <dim>80</dim>
          <dim>80</dim>
        </port>
      </input>
      <output>
        <port id="1" precision="FP32">
          <dim>1</dim>
          <dim>96</dim>
          <dim>80</dim>
          <dim>80</dim>
        </port>
      </output>
    </layer>
    <layer id="33" name="onnx_initializer_node_768/Output_0/Data__const" type="Const" version="opset1">
      <data element_type="f32" offset="47452" shape="24,96,1,1" size="9216" />
      <output>
        <port id="1" precision="FP32">
          <dim>24</dim>
          <dim>96</dim>
          <dim>1</dim>
          <dim>1</dim>
        </port>
      </output>
    </layer>
    <layer id="34" name="484/WithoutBiases" type="Convolution" version="opset1">
      <data dilations="1,1" output_padding="0,0" pads_begin="0,0" pads_end="0,0" strides="1,1" />
      <input>
        <port id="0">
          <dim>1</dim>
          <dim>96</dim>
          <dim>80</dim>
          <dim>80</dim>
        </port>
        <port id="1">
          <dim>24</dim>
          <dim>96</dim>
          <dim>1</dim>
          <dim>1</dim>
        </port>
      </input>
      <output>
        <port id="2" precision="FP32">
          <dim>1</dim>
          <dim>24</dim>
          <dim>80</dim>
          <dim>80</dim>
        </port>
      </output>
    </layer>
    <layer id="35" name="484/Dims4851/copy_const" type="Const" version="opset1">
      <data element_type="f32" offset="56668" shape="1,24,1,1" size="96" />
      <output>
        <port id="1" precision="FP32">
          <dim>1</dim>
          <dim>24</dim>
          <dim>1</dim>
          <dim>1</dim>
        </port>
      </output>
    </layer>
    <layer id="36" name="484" type="Add" version="opset1">
      <input>
        <port id="0">
          <dim>1</dim>
          <dim>24</dim>
          <dim>80</dim>
          <dim>80</dim>
        </port>
        <port id="1">
          <dim>1</dim>
          <dim>24</dim>
          <dim>1</dim>
          <dim>1</dim>
        </port>
      </input>
      <output>
        <port id="2" precision="FP32">
          <dim>1</dim>
          <dim>24</dim>
          <dim>80</dim>
          <dim>80</dim>
        </port>
      </output>
    </layer>
    <layer id="37" name="onnx_initializer_node_772/Output_0/Data__const" type="Const" version="opset1">
      <data element_type="f32" offset="56764" shape="144,24,1,1" size="13824" />
      <output>
        <port id="1" precision="FP32">
          <dim>144</dim>
          <dim>24</dim>
          <dim>1</dim>
          <dim>1</dim>
        </port>
      </output>
    </layer>
    <layer id="38" name="486/WithoutBiases" type="Convolution" version="opset1">
      <data dilations="1,1" output_padding="0,0" pads_begin="0,0" pads_end="0,0" strides="1,1" />
      <input>
        <port id="0">
          <dim>1</dim>
          <dim>24</dim>
          <dim>80</dim>
          <dim>80</dim>
        </port>
        <port id="1">
          <dim>144</dim>
          <dim>24</dim>
          <dim>1</dim>
          <dim>1</dim>
        </port>
      </input>
      <output>
        <port id="2" precision="FP32">
          <dim>1</dim>
          <dim>144</dim>
          <dim>80</dim>
          <dim>80</dim>
        </port>
      </output>
    </layer>
    <layer id="39" name="486/Dims4947/copy_const" type="Const" version="opset1">
      <data element_type="f32" offset="70588" shape="1,144,1,1" size="576" />
      <output>
        <port id="1" precision="FP32">
          <dim>1</dim>
          <dim>144</dim>
          <dim>1</dim>
          <dim>1</dim>
        </port>
      </output>
    </layer>
    <layer id="40" name="486" type="Add" version="opset1">
      <input>
        <port id="0">
          <dim>1</dim>
          <dim>144</dim>
          <dim>80</dim>
          <dim>80</dim>
        </port>
        <port id="1">
          <dim>1</dim>
          <dim>144</dim>
          <dim>1</dim>
          <dim>1</dim>
        </port>
      </input>
      <output>
        <port id="2" precision="FP32">
          <dim>1</dim>
          <dim>144</dim>
          <dim>80</dim>
          <dim>80</dim>
        </port>
      </output>
    </layer>
    <layer id="41" name="488" type="ReLU" version="opset1">
      <input>
        <port id="0">
          <dim>1</dim>
          <dim>144</dim>
          <dim>80</dim>
          <dim>80</dim>
        </port>
      </input>
      <output>
        <port id="1" precision="FP32">
          <dim>1</dim>
          <dim>144</dim>
          <dim>80</dim>
          <dim>80</dim>
        </port>
      </output>
    </layer>
    <layer id="42" name="1542315426_const" type="Const" version="opset1">
      <data element_type="f32" offset="71164" shape="144,1,1,3,3" size="5184" />
      <output>
        <port id="1" precision="FP32">
          <dim>144</dim>
          <dim>1</dim>
          <dim>1</dim>
          <dim>3</dim>
          <dim>3</dim>
        </port>
      </output>
    </layer>
    <layer id="43" name="489/WithoutBiases" type="GroupConvolution" version="opset1">
      <data dilations="1,1" output_padding="0,0" pads_begin="1,1" pads_end="1,1" strides="1,1" />
      <input>
        <port id="0">
          <dim>1</dim>
          <dim>144</dim>
          <dim>80</dim>
          <dim>80</dim>
        </port>
        <port id="1">
          <dim>144</dim>
          <dim>1</dim>
          <dim>1</dim>
          <dim>3</dim>
          <dim>3</dim>
        </port>
      </input>
      <output>
        <port id="2" precision="FP32">
          <dim>1</dim>
          <dim>144</dim>
          <dim>80</dim>
          <dim>80</dim>
        </port>
      </output>
    </layer>
    <layer id="44" name="489/Dims4791/copy_const" type="Const" version="opset1">
      <data element_type="f32" offset="76348" shape="1,144,1,1" size="576" />
      <output>
        <port id="1" precision="FP32">
          <dim>1</dim>
          <dim>144</dim>
          <dim>1</dim>
          <dim>1</dim>
        </port>
      </output>
    </layer>
    <layer id="45" name="489" type="Add" version="opset1">
      <input>
        <port id="0">
          <dim>1</dim>
          <dim>144</dim>
          <dim>80</dim>
          <dim>80</dim>
        </port>
        <port id="1">
          <dim>1</dim>
          <dim>144</dim>
          <dim>1</dim>
          <dim>1</dim>
        </port>
      </input>
      <output>
        <port id="2" precision="FP32">
          <dim>1</dim>
          <dim>144</dim>
          <dim>80</dim>
          <dim>80</dim>
        </port>
      </output>
    </layer>
    <layer id="46" name="491" type="ReLU" version="opset1">
      <input>
        <port id="0">
          <dim>1</dim>
          <dim>144</dim>
          <dim>80</dim>
          <dim>80</dim>
        </port>
      </input>
      <output>
        <port id="1" precision="FP32">
          <dim>1</dim>
          <dim>144</dim>
          <dim>80</dim>
          <dim>80</dim>
        </port>
      </output>
    </layer>
    <layer id="47" name="onnx_initializer_node_780/Output_0/Data__const" type="Const" version="opset1">
      <data element_type="f32" offset="76924" shape="24,144,1,1" size="13824" />
      <output>
        <port id="1" precision="FP32">
          <dim>24</dim>
          <dim>144</dim>
          <dim>1</dim>
          <dim>1</dim>
        </port>
      </output>
    </layer>
    <layer id="48" name="492/WithoutBiases" type="Convolution" version="opset1">
      <data dilations="1,1" output_padding="0,0" pads_begin="0,0" pads_end="0,0" strides="1,1" />
      <input>
        <port id="0">
          <dim>1</dim>
          <dim>144</dim>
          <dim>80</dim>
          <dim>80</dim>
        </port>
        <port id="1">
          <dim>24</dim>
          <dim>144</dim>
          <dim>1</dim>
          <dim>1</dim>
        </port>
      </input>
      <output>
        <port id="2" precision="FP32">
          <dim>1</dim>
          <dim>24</dim>
          <dim>80</dim>
          <dim>80</dim>
        </port>
      </output>
    </layer>
    <layer id="49" name="492/Dims4545/copy_const" type="Const" version="opset1">
      <data element_type="f32" offset="90748" shape="1,24,1,1" size="96" />
      <output>
        <port id="1" precision="FP32">
          <dim>1</dim>
          <dim>24</dim>
          <dim>1</dim>
          <dim>1</dim>
        </port>
      </output>
    </layer>
    <layer id="50" name="492" type="Add" version="opset1">
      <input>
        <port id="0">
          <dim>1</dim>
          <dim>24</dim>
          <dim>80</dim>
          <dim>80</dim>
        </port>
        <port id="1">
          <dim>1</dim>
          <dim>24</dim>
          <dim>1</dim>
          <dim>1</dim>
        </port>
      </input>
      <output>
        <port id="2" precision="FP32">
          <dim>1</dim>
          <dim>24</dim>
          <dim>80</dim>
          <dim>80</dim>
        </port>
      </output>
    </layer>
    <layer id="51" name="494" type="Add" version="opset1">
      <input>
        <port id="0">
          <dim>1</dim>
          <dim>24</dim>
          <dim>80</dim>
          <dim>80</dim>
        </port>
        <port id="1">
          <dim>1</dim>
          <dim>24</dim>
          <dim>80</dim>
          <dim>80</dim>
        </port>
      </input>
      <output>
        <port id="2" precision="FP32">
          <dim>1</dim>
          <dim>24</dim>
          <dim>80</dim>
          <dim>80</dim>
        </port>
      </output>
    </layer>
    <layer id="52" name="onnx_initializer_node_784/Output_0/Data__const" type="Const" version="opset1">
      <data element_type="f32" offset="90844" shape="144,24,1,1" size="13824" />
      <output>
        <port id="1" precision="FP32">
          <dim>144</dim>
          <dim>24</dim>
          <dim>1</dim>
          <dim>1</dim>
        </port>
      </output>
    </layer>
    <layer id="53" name="495/WithoutBiases" type="Convolution" version="opset1">
      <data dilations="1,1" output_padding="0,0" pads_begin="0,0" pads_end="0,0" strides="1,1" />
      <input>
        <port id="0">
          <dim>1</dim>
          <dim>24</dim>
          <dim>80</dim>
          <dim>80</dim>
        </port>
        <port id="1">
          <dim>144</dim>
          <dim>24</dim>
          <dim>1</dim>
          <dim>1</dim>
        </port>
      </input>
      <output>
        <port id="2" precision="FP32">
          <dim>1</dim>
          <dim>144</dim>
          <dim>80</dim>
          <dim>80</dim>
        </port>
      </output>
    </layer>
    <layer id="54" name="495/Dims5007/copy_const" type="Const" version="opset1">
      <data element_type="f32" offset="104668" shape="1,144,1,1" size="576" />
      <output>
        <port id="1" precision="FP32">
          <dim>1</dim>
          <dim>144</dim>
          <dim>1</dim>
          <dim>1</dim>
        </port>
      </output>
    </layer>
    <layer id="55" name="495" type="Add" version="opset1">
      <input>
        <port id="0">
          <dim>1</dim>
          <dim>144</dim>
          <dim>80</dim>
          <dim>80</dim>
        </port>
        <port id="1">
          <dim>1</dim>
          <dim>144</dim>
          <dim>1</dim>
          <dim>1</dim>
        </port>
      </input>
      <output>
        <port id="2" precision="FP32">
          <dim>1</dim>
          <dim>144</dim>
          <dim>80</dim>
          <dim>80</dim>
        </port>
      </output>
    </layer>
    <layer id="56" name="497" type="ReLU" version="opset1">
      <input>
        <port id="0">
          <dim>1</dim>
          <dim>144</dim>
          <dim>80</dim>
          <dim>80</dim>
        </port>
      </input>
      <output>
        <port id="1" precision="FP32">
          <dim>1</dim>
          <dim>144</dim>
          <dim>80</dim>
          <dim>80</dim>
        </port>
      </output>
    </layer>
    <layer id="57" name="1547115474_const" type="Const" version="opset1">
      <data element_type="f32" offset="105244" shape="144,1,1,3,3" size="5184" />
      <output>
        <port id="1" precision="FP32">
          <dim>144</dim>
          <dim>1</dim>
          <dim>1</dim>
          <dim>3</dim>
          <dim>3</dim>
        </port>
      </output>
    </layer>
    <layer id="58" name="498/WithoutBiases" type="GroupConvolution" version="opset1">
      <data dilations="1,1" output_padding="0,0" pads_begin="1,1" pads_end="1,1" strides="2,2" />
      <input>
        <port id="0">
          <dim>1</dim>
          <dim>144</dim>
          <dim>80</dim>
          <dim>80</dim>
        </port>
        <port id="1">
          <dim>144</dim>
          <dim>1</dim>
          <dim>1</dim>
          <dim>3</dim>
          <dim>3</dim>
        </port>
      </input>
      <output>
        <port id="2" precision="FP32">
          <dim>1</dim>
          <dim>144</dim>
          <dim>40</dim>
          <dim>40</dim>
        </port>
      </output>
    </layer>
    <layer id="59" name="498/Dims4983/copy_const" type="Const" version="opset1">
      <data element_type="f32" offset="110428" shape="1,144,1,1" size="576" />
      <output>
        <port id="1" precision="FP32">
          <dim>1</dim>
          <dim>144</dim>
          <dim>1</dim>
          <dim>1</dim>
        </port>
      </output>
    </layer>
    <layer id="60" name="498" type="Add" version="opset1">
      <input>
        <port id="0">
          <dim>1</dim>
          <dim>144</dim>
          <dim>40</dim>
          <dim>40</dim>
        </port>
        <port id="1">
          <dim>1</dim>
          <dim>144</dim>
          <dim>1</dim>
          <dim>1</dim>
        </port>
      </input>
      <output>
        <port id="2" precision="FP32">
          <dim>1</dim>
          <dim>144</dim>
          <dim>40</dim>
          <dim>40</dim>
        </port>
      </output>
    </layer>
    <layer id="61" name="500" type="ReLU" version="opset1">
      <input>
        <port id="0">
          <dim>1</dim>
          <dim>144</dim>
          <dim>40</dim>
          <dim>40</dim>
        </port>
      </input>
      <output>
        <port id="1" precision="FP32">
          <dim>1</dim>
          <dim>144</dim>
          <dim>40</dim>
          <dim>40</dim>
        </port>
      </output>
    </layer>
    <layer id="62" name="onnx_initializer_node_792/Output_0/Data__const" type="Const" version="opset1">
      <data element_type="f32" offset="111004" shape="32,144,1,1" size="18432" />
      <output>
        <port id="1" precision="FP32">
          <dim>32</dim>
          <dim>144</dim>
          <dim>1</dim>
          <dim>1</dim>
        </port>
      </output>
    </layer>
    <layer id="63" name="501/WithoutBiases" type="Convolution" version="opset1">
      <data dilations="1,1" output_padding="0,0" pads_begin="0,0" pads_end="0,0" strides="1,1" />
      <input>
        <port id="0">
          <dim>1</dim>
          <dim>144</dim>
          <dim>40</dim>
          <dim>40</dim>
        </port>
        <port id="1">
          <dim>32</dim>
          <dim>144</dim>
          <dim>1</dim>
          <dim>1</dim>
        </port>
      </input>
      <output>
        <port id="2" precision="FP32">
          <dim>1</dim>
          <dim>32</dim>
          <dim>40</dim>
          <dim>40</dim>
        </port>
      </output>
    </layer>
    <layer id="64" name="501/Dims4767/copy_const" type="Const" version="opset1">
      <data element_type="f32" offset="129436" shape="1,32,1,1" size="128" />
      <output>
        <port id="1" precision="FP32">
          <dim>1</dim>
          <dim>32</dim>
          <dim>1</dim>
          <dim>1</dim>
        </port>
      </output>
    </layer>
    <layer id="65" name="501" type="Add" version="opset1">
      <input>
        <port id="0">
          <dim>1</dim>
          <dim>32</dim>
          <dim>40</dim>
          <dim>40</dim>
        </port>
        <port id="1">
          <dim>1</dim>
          <dim>32</dim>
          <dim>1</dim>
          <dim>1</dim>
        </port>
      </input>
      <output>
        <port id="2" precision="FP32">
          <dim>1</dim>
          <dim>32</dim>
          <dim>40</dim>
          <dim>40</dim>
        </port>
      </output>
    </layer>
    <layer id="66" name="onnx_initializer_node_796/Output_0/Data__const" type="Const" version="opset1">
      <data element_type="f32" offset="129564" shape="192,32,1,1" size="24576" />
      <output>
        <port id="1" precision="FP32">
          <dim>192</dim>
          <dim>32</dim>
          <dim>1</dim>
          <dim>1</dim>
        </port>
      </output>
    </layer>
    <layer id="67" name="503/WithoutBiases" type="Convolution" version="opset1">
      <data dilations="1,1" output_padding="0,0" pads_begin="0,0" pads_end="0,0" strides="1,1" />
      <input>
        <port id="0">
          <dim>1</dim>
          <dim>32</dim>
          <dim>40</dim>
          <dim>40</dim>
        </port>
        <port id="1">
          <dim>192</dim>
          <dim>32</dim>
          <dim>1</dim>
          <dim>1</dim>
        </port>
      </input>
      <output>
        <port id="2" precision="FP32">
          <dim>1</dim>
          <dim>192</dim>
          <dim>40</dim>
          <dim>40</dim>
        </port>
      </output>
    </layer>
    <layer id="68" name="503/Dims4875/copy_const" type="Const" version="opset1">
      <data element_type="f32" offset="154140" shape="1,192,1,1" size="768" />
      <output>
        <port id="1" precision="FP32">
          <dim>1</dim>
          <dim>192</dim>
          <dim>1</dim>
          <dim>1</dim>
        </port>
      </output>
    </layer>
    <layer id="69" name="503" type="Add" version="opset1">
      <input>
        <port id="0">
          <dim>1</dim>
          <dim>192</dim>
          <dim>40</dim>
          <dim>40</dim>
        </port>
        <port id="1">
          <dim>1</dim>
          <dim>192</dim>
          <dim>1</dim>
          <dim>1</dim>
        </port>
      </input>
      <output>
        <port id="2" precision="FP32">
          <dim>1</dim>
          <dim>192</dim>
          <dim>40</dim>
          <dim>40</dim>
        </port>
      </output>
    </layer>
    <layer id="70" name="505" type="ReLU" version="opset1">
      <input>
        <port id="0">
          <dim>1</dim>
          <dim>192</dim>
          <dim>40</dim>
          <dim>40</dim>
        </port>
      </input>
      <output>
        <port id="1" precision="FP32">
          <dim>1</dim>
          <dim>192</dim>
          <dim>40</dim>
          <dim>40</dim>
        </port>
      </output>
    </layer>
    <layer id="71" name="1537515378_const" type="Const" version="opset1">
      <data element_type="f32" offset="154908" shape="192,1,1,3,3" size="6912" />
      <output>
        <port id="1" precision="FP32">
          <dim>192</dim>
          <dim>1</dim>
          <dim>1</dim>
          <dim>3</dim>
          <dim>3</dim>
        </port>
      </output>
    </layer>
    <layer id="72" name="506/WithoutBiases" type="GroupConvolution" version="opset1">
      <data dilations="1,1" output_padding="0,0" pads_begin="1,1" pads_end="1,1" strides="1,1" />
      <input>
        <port id="0">
          <dim>1</dim>
          <dim>192</dim>
          <dim>40</dim>
          <dim>40</dim>
        </port>
        <port id="1">
          <dim>192</dim>
          <dim>1</dim>
          <dim>1</dim>
          <dim>3</dim>
          <dim>3</dim>
        </port>
      </input>
      <output>
        <port id="2" precision="FP32">
          <dim>1</dim>
          <dim>192</dim>
          <dim>40</dim>
          <dim>40</dim>
        </port>
      </output>
    </layer>
    <layer id="73" name="506/Dims4599/copy_const" type="Const" version="opset1">
      <data element_type="f32" offset="161820" shape="1,192,1,1" size="768" />
      <output>
        <port id="1" precision="FP32">
          <dim>1</dim>
          <dim>192</dim>
          <dim>1</dim>
          <dim>1</dim>
        </port>
      </output>
    </layer>
    <layer id="74" name="506" type="Add" version="opset1">
      <input>
        <port id="0">
          <dim>1</dim>
          <dim>192</dim>
          <dim>40</dim>
          <dim>40</dim>
        </port>
        <port id="1">
          <dim>1</dim>
          <dim>192</dim>
          <dim>1</dim>
          <dim>1</dim>
        </port>
      </input>
      <output>
        <port id="2" precision="FP32">
          <dim>1</dim>
          <dim>192</dim>
          <dim>40</dim>
          <dim>40</dim>
        </port>
      </output>
    </layer>
    <layer id="75" name="508" type="ReLU" version="opset1">
      <input>
        <port id="0">
          <dim>1</dim>
          <dim>192</dim>
          <dim>40</dim>
          <dim>40</dim>
        </port>
      </input>
      <output>
        <port id="1" precision="FP32">
          <dim>1</dim>
          <dim>192</dim>
          <dim>40</dim>
          <dim>40</dim>
        </port>
      </output>
    </layer>
    <layer id="76" name="onnx_initializer_node_804/Output_0/Data__const" type="Const" version="opset1">
      <data element_type="f32" offset="162588" shape="32,192,1,1" size="24576" />
      <output>
        <port id="1" precision="FP32">
          <dim>32</dim>
          <dim>192</dim>
          <dim>1</dim>
          <dim>1</dim>
        </port>
      </output>
    </layer>
    <layer id="77" name="509/WithoutBiases" type="Convolution" version="opset1">
      <data dilations="1,1" output_padding="0,0" pads_begin="0,0" pads_end="0,0" strides="1,1" />
      <input>
        <port id="0">
          <dim>1</dim>
          <dim>192</dim>
          <dim>40</dim>
          <dim>40</dim>
        </port>
        <port id="1">
          <dim>32</dim>
          <dim>192</dim>
          <dim>1</dim>
          <dim>1</dim>
        </port>
      </input>
      <output>
        <port id="2" precision="FP32">
          <dim>1</dim>
          <dim>32</dim>
          <dim>40</dim>
          <dim>40</dim>
        </port>
      </output>
    </layer>
    <layer id="78" name="509/Dims4911/copy_const" type="Const" version="opset1">
      <data element_type="f32" offset="187164" shape="1,32,1,1" size="128" />
      <output>
        <port id="1" precision="FP32">
          <dim>1</dim>
          <dim>32</dim>
          <dim>1</dim>
          <dim>1</dim>
        </port>
      </output>
    </layer>
    <layer id="79" name="509" type="Add" version="opset1">
      <input>
        <port id="0">
          <dim>1</dim>
          <dim>32</dim>
          <dim>40</dim>
          <dim>40</dim>
        </port>
        <port id="1">
          <dim>1</dim>
          <dim>32</dim>
          <dim>1</dim>
          <dim>1</dim>
        </port>
      </input>
      <output>
        <port id="2" precision="FP32">
          <dim>1</dim>
          <dim>32</dim>
          <dim>40</dim>
          <dim>40</dim>
        </port>
      </output>
    </layer>
    <layer id="80" name="511" type="Add" version="opset1">
      <input>
        <port id="0">
          <dim>1</dim>
          <dim>32</dim>
          <dim>40</dim>
          <dim>40</dim>
        </port>
        <port id="1">
          <dim>1</dim>
          <dim>32</dim>
          <dim>40</dim>
          <dim>40</dim>
        </port>
      </input>
      <output>
        <port id="2" precision="FP32">
          <dim>1</dim>
          <dim>32</dim>
          <dim>40</dim>
          <dim>40</dim>
        </port>
      </output>
    </layer>
    <layer id="81" name="onnx_initializer_node_808/Output_0/Data__const" type="Const" version="opset1">
      <data element_type="f32" offset="187292" shape="192,32,1,1" size="24576" />
      <output>
        <port id="1" precision="FP32">
          <dim>192</dim>
          <dim>32</dim>
          <dim>1</dim>
          <dim>1</dim>
        </port>
      </output>
    </layer>
    <layer id="82" name="512/WithoutBiases" type="Convolution" version="opset1">
      <data dilations="1,1" output_padding="0,0" pads_begin="0,0" pads_end="0,0" strides="1,1" />
      <input>
        <port id="0">
          <dim>1</dim>
          <dim>32</dim>
          <dim>40</dim>
          <dim>40</dim>
        </port>
        <port id="1">
          <dim>192</dim>
          <dim>32</dim>
          <dim>1</dim>
          <dim>1</dim>
        </port>
      </input>
      <output>
        <port id="2" precision="FP32">
          <dim>1</dim>
          <dim>192</dim>
          <dim>40</dim>
          <dim>40</dim>
        </port>
      </output>
    </layer>
    <layer id="83" name="512/Dims4671/copy_const" type="Const" version="opset1">
      <data element_type="f32" offset="211868" shape="1,192,1,1" size="768" />
      <output>
        <port id="1" precision="FP32">
          <dim>1</dim>
          <dim>192</dim>
          <dim>1</dim>
          <dim>1</dim>
        </port>
      </output>
    </layer>
    <layer id="84" name="512" type="Add" version="opset1">
      <input>
        <port id="0">
          <dim>1</dim>
          <dim>192</dim>
          <dim>40</dim>
          <dim>40</dim>
        </port>
        <port id="1">
          <dim>1</dim>
          <dim>192</dim>
          <dim>1</dim>
          <dim>1</dim>
        </port>
      </input>
      <output>
        <port id="2" precision="FP32">
          <dim>1</dim>
          <dim>192</dim>
          <dim>40</dim>
          <dim>40</dim>
        </port>
      </output>
    </layer>
    <layer id="85" name="514" type="ReLU" version="opset1">
      <input>
        <port id="0">
          <dim>1</dim>
          <dim>192</dim>
          <dim>40</dim>
          <dim>40</dim>
        </port>
      </input>
      <output>
        <port id="1" precision="FP32">
          <dim>1</dim>
          <dim>192</dim>
          <dim>40</dim>
          <dim>40</dim>
        </port>
      </output>
    </layer>
    <layer id="86" name="1543515438_const" type="Const" version="opset1">
      <data element_type="f32" offset="212636" shape="192,1,1,3,3" size="6912" />
      <output>
        <port id="1" precision="FP32">
          <dim>192</dim>
          <dim>1</dim>
          <dim>1</dim>
          <dim>3</dim>
          <dim>3</dim>
        </port>
      </output>
    </layer>
    <layer id="87" name="515/WithoutBiases" type="GroupConvolution" version="opset1">
      <data dilations="1,1" output_padding="0,0" pads_begin="1,1" pads_end="1,1" strides="1,1" />
      <input>
        <port id="0">
          <dim>1</dim>
          <dim>192</dim>
          <dim>40</dim>
          <dim>40</dim>
        </port>
        <port id="1">
          <dim>192</dim>
          <dim>1</dim>
          <dim>1</dim>
          <dim>3</dim>
          <dim>3</dim>
        </port>
      </input>
      <output>
        <port id="2" precision="FP32">
          <dim>1</dim>
          <dim>192</dim>
          <dim>40</dim>
          <dim>40</dim>
        </port>
      </output>
    </layer>
    <layer id="88" name="515/Dims4815/copy_const" type="Const" version="opset1">
      <data element_type="f32" offset="219548" shape="1,192,1,1" size="768" />
      <output>
        <port id="1" precision="FP32">
          <dim>1</dim>
          <dim>192</dim>
          <dim>1</dim>
          <dim>1</dim>
        </port>
      </output>
    </layer>
    <layer id="89" name="515" type="Add" version="opset1">
      <input>
        <port id="0">
          <dim>1</dim>
          <dim>192</dim>
          <dim>40</dim>
          <dim>40</dim>
        </port>
        <port id="1">
          <dim>1</dim>
          <dim>192</dim>
          <dim>1</dim>
          <dim>1</dim>
        </port>
      </input>
      <output>
        <port id="2" precision="FP32">
          <dim>1</dim>
          <dim>192</dim>
          <dim>40</dim>
          <dim>40</dim>
        </port>
      </output>
    </layer>
    <layer id="90" name="517" type="ReLU" version="opset1">
      <input>
        <port id="0">
          <dim>1</dim>
          <dim>192</dim>
          <dim>40</dim>
          <dim>40</dim>
        </port>
      </input>
      <output>
        <port id="1" precision="FP32">
          <dim>1</dim>
          <dim>192</dim>
          <dim>40</dim>
          <dim>40</dim>
        </port>
      </output>
    </layer>
    <layer id="91" name="onnx_initializer_node_816/Output_0/Data__const" type="Const" version="opset1">
      <data element_type="f32" offset="220316" shape="32,192,1,1" size="24576" />
      <output>
        <port id="1" precision="FP32">
          <dim>32</dim>
          <dim>192</dim>
          <dim>1</dim>
          <dim>1</dim>
        </port>
      </output>
    </layer>
    <layer id="92" name="518/WithoutBiases" type="Convolution" version="opset1">
      <data dilations="1,1" output_padding="0,0" pads_begin="0,0" pads_end="0,0" strides="1,1" />
      <input>
        <port id="0">
          <dim>1</dim>
          <dim>192</dim>
          <dim>40</dim>
          <dim>40</dim>
        </port>
        <port id="1">
          <dim>32</dim>
          <dim>192</dim>
          <dim>1</dim>
          <dim>1</dim>
        </port>
      </input>
      <output>
        <port id="2" precision="FP32">
          <dim>1</dim>
          <dim>32</dim>
          <dim>40</dim>
          <dim>40</dim>
        </port>
      </output>
    </layer>
    <layer id="93" name="518/Dims4677/copy_const" type="Const" version="opset1">
      <data element_type="f32" offset="244892" shape="1,32,1,1" size="128" />
      <output>
        <port id="1" precision="FP32">
          <dim>1</dim>
          <dim>32</dim>
          <dim>1</dim>
          <dim>1</dim>
        </port>
      </output>
    </layer>
    <layer id="94" name="518" type="Add" version="opset1">
      <input>
        <port id="0">
          <dim>1</dim>
          <dim>32</dim>
          <dim>40</dim>
          <dim>40</dim>
        </port>
        <port id="1">
          <dim>1</dim>
          <dim>32</dim>
          <dim>1</dim>
          <dim>1</dim>
        </port>
      </input>
      <output>
        <port id="2" precision="FP32">
          <dim>1</dim>
          <dim>32</dim>
          <dim>40</dim>
          <dim>40</dim>
        </port>
      </output>
    </layer>
    <layer id="95" name="520" type="Add" version="opset1">
      <input>
        <port id="0">
          <dim>1</dim>
          <dim>32</dim>
          <dim>40</dim>
          <dim>40</dim>
        </port>
        <port id="1">
          <dim>1</dim>
          <dim>32</dim>
          <dim>40</dim>
          <dim>40</dim>
        </port>
      </input>
      <output>
        <port id="2" precision="FP32">
          <dim>1</dim>
          <dim>32</dim>
          <dim>40</dim>
          <dim>40</dim>
        </port>
      </output>
    </layer>
    <layer id="96" name="onnx_initializer_node_820/Output_0/Data__const" type="Const" version="opset1">
      <data element_type="f32" offset="245020" shape="192,32,1,1" size="24576" />
      <output>
        <port id="1" precision="FP32">
          <dim>192</dim>
          <dim>32</dim>
          <dim>1</dim>
          <dim>1</dim>
        </port>
      </output>
    </layer>
    <layer id="97" name="521/WithoutBiases" type="Convolution" version="opset1">
      <data dilations="1,1" output_padding="0,0" pads_begin="0,0" pads_end="0,0" strides="1,1" />
      <input>
        <port id="0">
          <dim>1</dim>
          <dim>32</dim>
          <dim>40</dim>
          <dim>40</dim>
        </port>
        <port id="1">
          <dim>192</dim>
          <dim>32</dim>
          <dim>1</dim>
          <dim>1</dim>
        </port>
      </input>
      <output>
        <port id="2" precision="FP32">
          <dim>1</dim>
          <dim>192</dim>
          <dim>40</dim>
          <dim>40</dim>
        </port>
      </output>
    </layer>
    <layer id="98" name="521/Dims4869/copy_const" type="Const" version="opset1">
      <data element_type="f32" offset="269596" shape="1,192,1,1" size="768" />
      <output>
        <port id="1" precision="FP32">
          <dim>1</dim>
          <dim>192</dim>
          <dim>1</dim>
          <dim>1</dim>
        </port>
      </output>
    </layer>
    <layer id="99" name="521" type="Add" version="opset1">
      <input>
        <port id="0">
          <dim>1</dim>
          <dim>192</dim>
          <dim>40</dim>
          <dim>40</dim>
        </port>
        <port id="1">
          <dim>1</dim>
          <dim>192</dim>
          <dim>1</dim>
          <dim>1</dim>
        </port>
      </input>
      <output>
        <port id="2" precision="FP32">
          <dim>1</dim>
          <dim>192</dim>
          <dim>40</dim>
          <dim>40</dim>
        </port>
      </output>
    </layer>
    <layer id="100" name="523" type="ReLU" version="opset1">
      <input>
        <port id="0">
          <dim>1</dim>
          <dim>192</dim>
          <dim>40</dim>
          <dim>40</dim>
        </port>
      </input>
      <output>
        <port id="1" precision="FP32">
          <dim>1</dim>
          <dim>192</dim>
          <dim>40</dim>
          <dim>40</dim>
        </port>
      </output>
    </layer>
    <layer id="101" name="1543915442_const" type="Const" version="opset1">
      <data element_type="f32" offset="270364" shape="192,1,1,3,3" size="6912" />
      <output>
        <port id="1" precision="FP32">
          <dim>192</dim>
          <dim>1</dim>
          <dim>1</dim>
          <dim>3</dim>
          <dim>3</dim>
        </port>
      </output>
    </layer>
    <layer id="102" name="524/WithoutBiases" type="GroupConvolution" version="opset1">
      <data dilations="1,1" output_padding="0,0" pads_begin="1,1" pads_end="1,1" strides="2,2" />
      <input>
        <port id="0">
          <dim>1</dim>
          <dim>192</dim>
          <dim>40</dim>
          <dim>40</dim>
        </port>
        <port id="1">
          <dim>192</dim>
          <dim>1</dim>
          <dim>1</dim>
          <dim>3</dim>
          <dim>3</dim>
        </port>
      </input>
      <output>
        <port id="2" precision="FP32">
          <dim>1</dim>
          <dim>192</dim>
          <dim>20</dim>
          <dim>20</dim>
        </port>
      </output>
    </layer>
    <layer id="103" name="524/Dims4821/copy_const" type="Const" version="opset1">
      <data element_type="f32" offset="277276" shape="1,192,1,1" size="768" />
      <output>
        <port id="1" precision="FP32">
          <dim>1</dim>
          <dim>192</dim>
          <dim>1</dim>
          <dim>1</dim>
        </port>
      </output>
    </layer>
    <layer id="104" name="524" type="Add" version="opset1">
      <input>
        <port id="0">
          <dim>1</dim>
          <dim>192</dim>
          <dim>20</dim>
          <dim>20</dim>
        </port>
        <port id="1">
          <dim>1</dim>
          <dim>192</dim>
          <dim>1</dim>
          <dim>1</dim>
        </port>
      </input>
      <output>
        <port id="2" precision="FP32">
          <dim>1</dim>
          <dim>192</dim>
          <dim>20</dim>
          <dim>20</dim>
        </port>
      </output>
    </layer>
    <layer id="105" name="526" type="ReLU" version="opset1">
      <input>
        <port id="0">
          <dim>1</dim>
          <dim>192</dim>
          <dim>20</dim>
          <dim>20</dim>
        </port>
      </input>
      <output>
        <port id="1" precision="FP32">
          <dim>1</dim>
          <dim>192</dim>
          <dim>20</dim>
          <dim>20</dim>
        </port>
      </output>
    </layer>
    <layer id="106" name="onnx_initializer_node_828/Output_0/Data__const" type="Const" version="opset1">
      <data element_type="f32" offset="278044" shape="64,192,1,1" size="49152" />
      <output>
        <port id="1" precision="FP32">
          <dim>64</dim>
          <dim>192</dim>
          <dim>1</dim>
          <dim>1</dim>
        </port>
      </output>
    </layer>
    <layer id="107" name="527/WithoutBiases" type="Convolution" version="opset1">
      <data dilations="1,1" output_padding="0,0" pads_begin="0,0" pads_end="0,0" strides="1,1" />
      <input>
        <port id="0">
          <dim>1</dim>
          <dim>192</dim>
          <dim>20</dim>
          <dim>20</dim>
        </port>
        <port id="1">
          <dim>64</dim>
          <dim>192</dim>
          <dim>1</dim>
          <dim>1</dim>
        </port>
      </input>
      <output>
        <port id="2" precision="FP32">
          <dim>1</dim>
          <dim>64</dim>
          <dim>20</dim>
          <dim>20</dim>
        </port>
      </output>
    </layer>
    <layer id="108" name="527/Dims4995/copy_const" type="Const" version="opset1">
      <data element_type="f32" offset="327196" shape="1,64,1,1" size="256" />
      <output>
        <port id="1" precision="FP32">
          <dim>1</dim>
          <dim>64</dim>
          <dim>1</dim>
          <dim>1</dim>
        </port>
      </output>
    </layer>
    <layer id="109" name="527" type="Add" version="opset1">
      <input>
        <port id="0">
          <dim>1</dim>
          <dim>64</dim>
          <dim>20</dim>
          <dim>20</dim>
        </port>
        <port id="1">
          <dim>1</dim>
          <dim>64</dim>
          <dim>1</dim>
          <dim>1</dim>
        </port>
      </input>
      <output>
        <port id="2" precision="FP32">
          <dim>1</dim>
          <dim>64</dim>
          <dim>20</dim>
          <dim>20</dim>
        </port>
      </output>
    </layer>
    <layer id="110" name="onnx_initializer_node_832/Output_0/Data__const" type="Const" version="opset1">
      <data element_type="f32" offset="327452" shape="384,64,1,1" size="98304" />
      <output>
        <port id="1" precision="FP32">
          <dim>384</dim>
          <dim>64</dim>
          <dim>1</dim>
          <dim>1</dim>
        </port>
      </output>
    </layer>
    <layer id="111" name="529/WithoutBiases" type="Convolution" version="opset1">
      <data dilations="1,1" output_padding="0,0" pads_begin="0,0" pads_end="0,0" strides="1,1" />
      <input>
        <port id="0">
          <dim>1</dim>
          <dim>64</dim>
          <dim>20</dim>
          <dim>20</dim>
        </port>
        <port id="1">
          <dim>384</dim>
          <dim>64</dim>
          <dim>1</dim>
          <dim>1</dim>
        </port>
      </input>
      <output>
        <port id="2" precision="FP32">
          <dim>1</dim>
          <dim>384</dim>
          <dim>20</dim>
          <dim>20</dim>
        </port>
      </output>
    </layer>
    <layer id="112" name="529/Dims4803/copy_const" type="Const" version="opset1">
      <data element_type="f32" offset="425756" shape="1,384,1,1" size="1536" />
      <output>
        <port id="1" precision="FP32">
          <dim>1</dim>
          <dim>384</dim>
          <dim>1</dim>
          <dim>1</dim>
        </port>
      </output>
    </layer>
    <layer id="113" name="529" type="Add" version="opset1">
      <input>
        <port id="0">
          <dim>1</dim>
          <dim>384</dim>
          <dim>20</dim>
          <dim>20</dim>
        </port>
        <port id="1">
          <dim>1</dim>
          <dim>384</dim>
          <dim>1</dim>
          <dim>1</dim>
        </port>
      </input>
      <output>
        <port id="2" precision="FP32">
          <dim>1</dim>
          <dim>384</dim>
          <dim>20</dim>
          <dim>20</dim>
        </port>
      </output>
    </layer>
    <layer id="114" name="531" type="ReLU" version="opset1">
      <input>
        <port id="0">
          <dim>1</dim>
          <dim>384</dim>
          <dim>20</dim>
          <dim>20</dim>
        </port>
      </input>
      <output>
        <port id="1" precision="FP32">
          <dim>1</dim>
          <dim>384</dim>
          <dim>20</dim>
          <dim>20</dim>
        </port>
      </output>
    </layer>
    <layer id="115" name="1541115414_const" type="Const" version="opset1">
      <data element_type="f32" offset="427292" shape="384,1,1,3,3" size="13824" />
      <output>
        <port id="1" precision="FP32">
          <dim>384</dim>
          <dim>1</dim>
          <dim>1</dim>
          <dim>3</dim>
          <dim>3</dim>
        </port>
      </output>
    </layer>
    <layer id="116" name="532/WithoutBiases" type="GroupConvolution" version="opset1">
      <data dilations="1,1" output_padding="0,0" pads_begin="1,1" pads_end="1,1" strides="1,1" />
      <input>
        <port id="0">
          <dim>1</dim>
          <dim>384</dim>
          <dim>20</dim>
          <dim>20</dim>
        </port>
        <port id="1">
          <dim>384</dim>
          <dim>1</dim>
          <dim>1</dim>
          <dim>3</dim>
          <dim>3</dim>
        </port>
      </input>
      <output>
        <port id="2" precision="FP32">
          <dim>1</dim>
          <dim>384</dim>
          <dim>20</dim>
          <dim>20</dim>
        </port>
      </output>
    </layer>
    <layer id="117" name="532/Dims4749/copy_const" type="Const" version="opset1">
      <data element_type="f32" offset="441116" shape="1,384,1,1" size="1536" />
      <output>
        <port id="1" precision="FP32">
          <dim>1</dim>
          <dim>384</dim>
          <dim>1</dim>
          <dim>1</dim>
        </port>
      </output>
    </layer>
    <layer id="118" name="532" type="Add" version="opset1">
      <input>
        <port id="0">
          <dim>1</dim>
          <dim>384</dim>
          <dim>20</dim>
          <dim>20</dim>
        </port>
        <port id="1">
          <dim>1</dim>
          <dim>384</dim>
          <dim>1</dim>
          <dim>1</dim>
        </port>
      </input>
      <output>
        <port id="2" precision="FP32">
          <dim>1</dim>
          <dim>384</dim>
          <dim>20</dim>
          <dim>20</dim>
        </port>
      </output>
    </layer>
    <layer id="119" name="534" type="ReLU" version="opset1">
      <input>
        <port id="0">
          <dim>1</dim>
          <dim>384</dim>
          <dim>20</dim>
          <dim>20</dim>
        </port>
      </input>
      <output>
        <port id="1" precision="FP32">
          <dim>1</dim>
          <dim>384</dim>
          <dim>20</dim>
          <dim>20</dim>
        </port>
      </output>
    </layer>
    <layer id="120" name="onnx_initializer_node_840/Output_0/Data__const" type="Const" version="opset1">
      <data element_type="f32" offset="442652" shape="64,384,1,1" size="98304" />
      <output>
        <port id="1" precision="FP32">
          <dim>64</dim>
          <dim>384</dim>
          <dim>1</dim>
          <dim>1</dim>
        </port>
      </output>
    </layer>
    <layer id="121" name="535/WithoutBiases" type="Convolution" version="opset1">
      <data dilations="1,1" output_padding="0,0" pads_begin="0,0" pads_end="0,0" strides="1,1" />
      <input>
        <port id="0">
          <dim>1</dim>
          <dim>384</dim>
          <dim>20</dim>
          <dim>20</dim>
        </port>
        <port id="1">
          <dim>64</dim>
          <dim>384</dim>
          <dim>1</dim>
          <dim>1</dim>
        </port>
      </input>
      <output>
        <port id="2" precision="FP32">
          <dim>1</dim>
          <dim>64</dim>
          <dim>20</dim>
          <dim>20</dim>
        </port>
      </output>
    </layer>
    <layer id="122" name="535/Dims4683/copy_const" type="Const" version="opset1">
      <data element_type="f32" offset="540956" shape="1,64,1,1" size="256" />
      <output>
        <port id="1" precision="FP32">
          <dim>1</dim>
          <dim>64</dim>
          <dim>1</dim>
          <dim>1</dim>
        </port>
      </output>
    </layer>
    <layer id="123" name="535" type="Add" version="opset1">
      <input>
        <port id="0">
          <dim>1</dim>
          <dim>64</dim>
          <dim>20</dim>
          <dim>20</dim>
        </port>
        <port id="1">
          <dim>1</dim>
          <dim>64</dim>
          <dim>1</dim>
          <dim>1</dim>
        </port>
      </input>
      <output>
        <port id="2" precision="FP32">
          <dim>1</dim>
          <dim>64</dim>
          <dim>20</dim>
          <dim>20</dim>
        </port>
      </output>
    </layer>
    <layer id="124" name="537" type="Add" version="opset1">
      <input>
        <port id="0">
          <dim>1</dim>
          <dim>64</dim>
          <dim>20</dim>
          <dim>20</dim>
        </port>
        <port id="1">
          <dim>1</dim>
          <dim>64</dim>
          <dim>20</dim>
          <dim>20</dim>
        </port>
      </input>
      <output>
        <port id="2" precision="FP32">
          <dim>1</dim>
          <dim>64</dim>
          <dim>20</dim>
          <dim>20</dim>
        </port>
      </output>
    </layer>
    <layer id="125" name="onnx_initializer_node_844/Output_0/Data__const" type="Const" version="opset1">
      <data element_type="f32" offset="541212" shape="384,64,1,1" size="98304" />
      <output>
        <port id="1" precision="FP32">
          <dim>384</dim>
          <dim>64</dim>
          <dim>1</dim>
          <dim>1</dim>
        </port>
      </output>
    </layer>
    <layer id="126" name="538/WithoutBiases" type="Convolution" version="opset1">
      <data dilations="1,1" output_padding="0,0" pads_begin="0,0" pads_end="0,0" strides="1,1" />
      <input>
        <port id="0">
          <dim>1</dim>
          <dim>64</dim>
          <dim>20</dim>
          <dim>20</dim>
        </port>
        <port id="1">
          <dim>384</dim>
          <dim>64</dim>
          <dim>1</dim>
          <dim>1</dim>
        </port>
      </input>
      <output>
        <port id="2" precision="FP32">
          <dim>1</dim>
          <dim>384</dim>
          <dim>20</dim>
          <dim>20</dim>
        </port>
      </output>
    </layer>
    <layer id="127" name="538/Dims4743/copy_const" type="Const" version="opset1">
      <data element_type="f32" offset="639516" shape="1,384,1,1" size="1536" />
      <output>
        <port id="1" precision="FP32">
          <dim>1</dim>
          <dim>384</dim>
          <dim>1</dim>
          <dim>1</dim>
        </port>
      </output>
    </layer>
    <layer id="128" name="538" type="Add" version="opset1">
      <input>
        <port id="0">
          <dim>1</dim>
          <dim>384</dim>
          <dim>20</dim>
          <dim>20</dim>
        </port>
        <port id="1">
          <dim>1</dim>
          <dim>384</dim>
          <dim>1</dim>
          <dim>1</dim>
        </port>
      </input>
      <output>
        <port id="2" precision="FP32">
          <dim>1</dim>
          <dim>384</dim>
          <dim>20</dim>
          <dim>20</dim>
        </port>
      </output>
    </layer>
    <layer id="129" name="540" type="ReLU" version="opset1">
      <input>
        <port id="0">
          <dim>1</dim>
          <dim>384</dim>
          <dim>20</dim>
          <dim>20</dim>
        </port>
      </input>
      <output>
        <port id="1" precision="FP32">
          <dim>1</dim>
          <dim>384</dim>
          <dim>20</dim>
          <dim>20</dim>
        </port>
      </output>
    </layer>
    <layer id="130" name="1541915422_const" type="Const" version="opset1">
      <data element_type="f32" offset="641052" shape="384,1,1,3,3" size="13824" />
      <output>
        <port id="1" precision="FP32">
          <dim>384</dim>
          <dim>1</dim>
          <dim>1</dim>
          <dim>3</dim>
          <dim>3</dim>
        </port>
      </output>
    </layer>
    <layer id="131" name="541/WithoutBiases" type="GroupConvolution" version="opset1">
      <data dilations="1,1" output_padding="0,0" pads_begin="1,1" pads_end="1,1" strides="1,1" />
      <input>
        <port id="0">
          <dim>1</dim>
          <dim>384</dim>
          <dim>20</dim>
          <dim>20</dim>
        </port>
        <port id="1">
          <dim>384</dim>
          <dim>1</dim>
          <dim>1</dim>
          <dim>3</dim>
          <dim>3</dim>
        </port>
      </input>
      <output>
        <port id="2" precision="FP32">
          <dim>1</dim>
          <dim>384</dim>
          <dim>20</dim>
          <dim>20</dim>
        </port>
      </output>
    </layer>
    <layer id="132" name="541/Dims4773/copy_const" type="Const" version="opset1">
      <data element_type="f32" offset="654876" shape="1,384,1,1" size="1536" />
      <output>
        <port id="1" precision="FP32">
          <dim>1</dim>
          <dim>384</dim>
          <dim>1</dim>
          <dim>1</dim>
        </port>
      </output>
    </layer>
    <layer id="133" name="541" type="Add" version="opset1">
      <input>
        <port id="0">
          <dim>1</dim>
          <dim>384</dim>
          <dim>20</dim>
          <dim>20</dim>
        </port>
        <port id="1">
          <dim>1</dim>
          <dim>384</dim>
          <dim>1</dim>
          <dim>1</dim>
        </port>
      </input>
      <output>
        <port id="2" precision="FP32">
          <dim>1</dim>
          <dim>384</dim>
          <dim>20</dim>
          <dim>20</dim>
        </port>
      </output>
    </layer>
    <layer id="134" name="543" type="ReLU" version="opset1">
      <input>
        <port id="0">
          <dim>1</dim>
          <dim>384</dim>
          <dim>20</dim>
          <dim>20</dim>
        </port>
      </input>
      <output>
        <port id="1" precision="FP32">
          <dim>1</dim>
          <dim>384</dim>
          <dim>20</dim>
          <dim>20</dim>
        </port>
      </output>
    </layer>
    <layer id="135" name="onnx_initializer_node_852/Output_0/Data__const" type="Const" version="opset1">
      <data element_type="f32" offset="656412" shape="64,384,1,1" size="98304" />
      <output>
        <port id="1" precision="FP32">
          <dim>64</dim>
          <dim>384</dim>
          <dim>1</dim>
          <dim>1</dim>
        </port>
      </output>
    </layer>
    <layer id="136" name="544/WithoutBiases" type="Convolution" version="opset1">
      <data dilations="1,1" output_padding="0,0" pads_begin="0,0" pads_end="0,0" strides="1,1" />
      <input>
        <port id="0">
          <dim>1</dim>
          <dim>384</dim>
          <dim>20</dim>
          <dim>20</dim>
        </port>
        <port id="1">
          <dim>64</dim>
          <dim>384</dim>
          <dim>1</dim>
          <dim>1</dim>
        </port>
      </input>
      <output>
        <port id="2" precision="FP32">
          <dim>1</dim>
          <dim>64</dim>
          <dim>20</dim>
          <dim>20</dim>
        </port>
      </output>
    </layer>
    <layer id="137" name="544/Dims4719/copy_const" type="Const" version="opset1">
      <data element_type="f32" offset="754716" shape="1,64,1,1" size="256" />
      <output>
        <port id="1" precision="FP32">
          <dim>1</dim>
          <dim>64</dim>
          <dim>1</dim>
          <dim>1</dim>
        </port>
      </output>
    </layer>
    <layer id="138" name="544" type="Add" version="opset1">
      <input>
        <port id="0">
          <dim>1</dim>
          <dim>64</dim>
          <dim>20</dim>
          <dim>20</dim>
        </port>
        <port id="1">
          <dim>1</dim>
          <dim>64</dim>
          <dim>1</dim>
          <dim>1</dim>
        </port>
      </input>
      <output>
        <port id="2" precision="FP32">
          <dim>1</dim>
          <dim>64</dim>
          <dim>20</dim>
          <dim>20</dim>
        </port>
      </output>
    </layer>
    <layer id="139" name="546" type="Add" version="opset1">
      <input>
        <port id="0">
          <dim>1</dim>
          <dim>64</dim>
          <dim>20</dim>
          <dim>20</dim>
        </port>
        <port id="1">
          <dim>1</dim>
          <dim>64</dim>
          <dim>20</dim>
          <dim>20</dim>
        </port>
      </input>
      <output>
        <port id="2" precision="FP32">
          <dim>1</dim>
          <dim>64</dim>
          <dim>20</dim>
          <dim>20</dim>
        </port>
      </output>
    </layer>
    <layer id="140" name="onnx_initializer_node_856/Output_0/Data__const" type="Const" version="opset1">
      <data element_type="f32" offset="754972" shape="384,64,1,1" size="98304" />
      <output>
        <port id="1" precision="FP32">
          <dim>384</dim>
          <dim>64</dim>
          <dim>1</dim>
          <dim>1</dim>
        </port>
      </output>
    </layer>
    <layer id="141" name="547/WithoutBiases" type="Convolution" version="opset1">
      <data dilations="1,1" output_padding="0,0" pads_begin="0,0" pads_end="0,0" strides="1,1" />
      <input>
        <port id="0">
          <dim>1</dim>
          <dim>64</dim>
          <dim>20</dim>
          <dim>20</dim>
        </port>
        <port id="1">
          <dim>384</dim>
          <dim>64</dim>
          <dim>1</dim>
          <dim>1</dim>
        </port>
      </input>
      <output>
        <port id="2" precision="FP32">
          <dim>1</dim>
          <dim>384</dim>
          <dim>20</dim>
          <dim>20</dim>
        </port>
      </output>
    </layer>
    <layer id="142" name="547/Dims4521/copy_const" type="Const" version="opset1">
      <data element_type="f32" offset="853276" shape="1,384,1,1" size="1536" />
      <output>
        <port id="1" precision="FP32">
          <dim>1</dim>
          <dim>384</dim>
          <dim>1</dim>
          <dim>1</dim>
        </port>
      </output>
    </layer>
    <layer id="143" name="547" type="Add" version="opset1">
      <input>
        <port id="0">
          <dim>1</dim>
          <dim>384</dim>
          <dim>20</dim>
          <dim>20</dim>
        </port>
        <port id="1">
          <dim>1</dim>
          <dim>384</dim>
          <dim>1</dim>
          <dim>1</dim>
        </port>
      </input>
      <output>
        <port id="2" precision="FP32">
          <dim>1</dim>
          <dim>384</dim>
          <dim>20</dim>
          <dim>20</dim>
        </port>
      </output>
    </layer>
    <layer id="144" name="549" type="ReLU" version="opset1">
      <input>
        <port id="0">
          <dim>1</dim>
          <dim>384</dim>
          <dim>20</dim>
          <dim>20</dim>
        </port>
      </input>
      <output>
        <port id="1" precision="FP32">
          <dim>1</dim>
          <dim>384</dim>
          <dim>20</dim>
          <dim>20</dim>
        </port>
      </output>
    </layer>
    <layer id="145" name="1540315406_const" type="Const" version="opset1">
      <data element_type="f32" offset="854812" shape="384,1,1,3,3" size="13824" />
      <output>
        <port id="1" precision="FP32">
          <dim>384</dim>
          <dim>1</dim>
          <dim>1</dim>
          <dim>3</dim>
          <dim>3</dim>
        </port>
      </output>
    </layer>
    <layer id="146" name="550/WithoutBiases" type="GroupConvolution" version="opset1">
      <data dilations="1,1" output_padding="0,0" pads_begin="1,1" pads_end="1,1" strides="1,1" />
      <input>
        <port id="0">
          <dim>1</dim>
          <dim>384</dim>
          <dim>20</dim>
          <dim>20</dim>
        </port>
        <port id="1">
          <dim>384</dim>
          <dim>1</dim>
          <dim>1</dim>
          <dim>3</dim>
          <dim>3</dim>
        </port>
      </input>
      <output>
        <port id="2" precision="FP32">
          <dim>1</dim>
          <dim>384</dim>
          <dim>20</dim>
          <dim>20</dim>
        </port>
      </output>
    </layer>
    <layer id="147" name="550/Dims4725/copy_const" type="Const" version="opset1">
      <data element_type="f32" offset="868636" shape="1,384,1,1" size="1536" />
      <output>
        <port id="1" precision="FP32">
          <dim>1</dim>
          <dim>384</dim>
          <dim>1</dim>
          <dim>1</dim>
        </port>
      </output>
    </layer>
    <layer id="148" name="550" type="Add" version="opset1">
      <input>
        <port id="0">
          <dim>1</dim>
          <dim>384</dim>
          <dim>20</dim>
          <dim>20</dim>
        </port>
        <port id="1">
          <dim>1</dim>
          <dim>384</dim>
          <dim>1</dim>
          <dim>1</dim>
        </port>
      </input>
      <output>
        <port id="2" precision="FP32">
          <dim>1</dim>
          <dim>384</dim>
          <dim>20</dim>
          <dim>20</dim>
        </port>
      </output>
    </layer>
    <layer id="149" name="552" type="ReLU" version="opset1">
      <input>
        <port id="0">
          <dim>1</dim>
          <dim>384</dim>
          <dim>20</dim>
          <dim>20</dim>
        </port>
      </input>
      <output>
        <port id="1" precision="FP32">
          <dim>1</dim>
          <dim>384</dim>
          <dim>20</dim>
          <dim>20</dim>
        </port>
      </output>
    </layer>
    <layer id="150" name="onnx_initializer_node_864/Output_0/Data__const" type="Const" version="opset1">
      <data element_type="f32" offset="870172" shape="64,384,1,1" size="98304" />
      <output>
        <port id="1" precision="FP32">
          <dim>64</dim>
          <dim>384</dim>
          <dim>1</dim>
          <dim>1</dim>
        </port>
      </output>
    </layer>
    <layer id="151" name="553/WithoutBiases" type="Convolution" version="opset1">
      <data dilations="1,1" output_padding="0,0" pads_begin="0,0" pads_end="0,0" strides="1,1" />
      <input>
        <port id="0">
          <dim>1</dim>
          <dim>384</dim>
          <dim>20</dim>
          <dim>20</dim>
        </port>
        <port id="1">
          <dim>64</dim>
          <dim>384</dim>
          <dim>1</dim>
          <dim>1</dim>
        </port>
      </input>
      <output>
        <port id="2" precision="FP32">
          <dim>1</dim>
          <dim>64</dim>
          <dim>20</dim>
          <dim>20</dim>
        </port>
      </output>
    </layer>
    <layer id="152" name="553/Dims4731/copy_const" type="Const" version="opset1">
      <data element_type="f32" offset="968476" shape="1,64,1,1" size="256" />
      <output>
        <port id="1" precision="FP32">
          <dim>1</dim>
          <dim>64</dim>
          <dim>1</dim>
          <dim>1</dim>
        </port>
      </output>
    </layer>
    <layer id="153" name="553" type="Add" version="opset1">
      <input>
        <port id="0">
          <dim>1</dim>
          <dim>64</dim>
          <dim>20</dim>
          <dim>20</dim>
        </port>
        <port id="1">
          <dim>1</dim>
          <dim>64</dim>
          <dim>1</dim>
          <dim>1</dim>
        </port>
      </input>
      <output>
        <port id="2" precision="FP32">
          <dim>1</dim>
          <dim>64</dim>
          <dim>20</dim>
          <dim>20</dim>
        </port>
      </output>
    </layer>
    <layer id="154" name="555" type="Add" version="opset1">
      <input>
        <port id="0">
          <dim>1</dim>
          <dim>64</dim>
          <dim>20</dim>
          <dim>20</dim>
        </port>
        <port id="1">
          <dim>1</dim>
          <dim>64</dim>
          <dim>20</dim>
          <dim>20</dim>
        </port>
      </input>
      <output>
        <port id="2" precision="FP32">
          <dim>1</dim>
          <dim>64</dim>
          <dim>20</dim>
          <dim>20</dim>
        </port>
      </output>
    </layer>
    <layer id="155" name="onnx_initializer_node_868/Output_0/Data__const" type="Const" version="opset1">
      <data element_type="f32" offset="968732" shape="384,64,1,1" size="98304" />
      <output>
        <port id="1" precision="FP32">
          <dim>384</dim>
          <dim>64</dim>
          <dim>1</dim>
          <dim>1</dim>
        </port>
      </output>
    </layer>
    <layer id="156" name="556/WithoutBiases" type="Convolution" version="opset1">
      <data dilations="1,1" output_padding="0,0" pads_begin="0,0" pads_end="0,0" strides="1,1" />
      <input>
        <port id="0">
          <dim>1</dim>
          <dim>64</dim>
          <dim>20</dim>
          <dim>20</dim>
        </port>
        <port id="1">
          <dim>384</dim>
          <dim>64</dim>
          <dim>1</dim>
          <dim>1</dim>
        </port>
      </input>
      <output>
        <port id="2" precision="FP32">
          <dim>1</dim>
          <dim>384</dim>
          <dim>20</dim>
          <dim>20</dim>
        </port>
      </output>
    </layer>
    <layer id="157" name="556/Dims4845/copy_const" type="Const" version="opset1">
      <data element_type="f32" offset="1067036" shape="1,384,1,1" size="1536" />
      <output>
        <port id="1" precision="FP32">
          <dim>1</dim>
          <dim>384</dim>
          <dim>1</dim>
          <dim>1</dim>
        </port>
      </output>
    </layer>
    <layer id="158" name="556" type="Add" version="opset1">
      <input>
        <port id="0">
          <dim>1</dim>
          <dim>384</dim>
          <dim>20</dim>
          <dim>20</dim>
        </port>
        <port id="1">
          <dim>1</dim>
          <dim>384</dim>
          <dim>1</dim>
          <dim>1</dim>
        </port>
      </input>
      <output>
        <port id="2" precision="FP32">
          <dim>1</dim>
          <dim>384</dim>
          <dim>20</dim>
          <dim>20</dim>
        </port>
      </output>
    </layer>
    <layer id="159" name="558" type="ReLU" version="opset1">
      <input>
        <port id="0">
          <dim>1</dim>
          <dim>384</dim>
          <dim>20</dim>
          <dim>20</dim>
        </port>
      </input>
      <output>
        <port id="1" precision="FP32">
          <dim>1</dim>
          <dim>384</dim>
          <dim>20</dim>
          <dim>20</dim>
        </port>
      </output>
    </layer>
    <layer id="160" name="1545515458_const" type="Const" version="opset1">
      <data element_type="f32" offset="1068572" shape="384,1,1,3,3" size="13824" />
      <output>
        <port id="1" precision="FP32">
          <dim>384</dim>
          <dim>1</dim>
          <dim>1</dim>
          <dim>3</dim>
          <dim>3</dim>
        </port>
      </output>
    </layer>
    <layer id="161" name="559/WithoutBiases" type="GroupConvolution" version="opset1">
      <data dilations="1,1" output_padding="0,0" pads_begin="1,1" pads_end="1,1" strides="1,1" />
      <input>
        <port id="0">
          <dim>1</dim>
          <dim>384</dim>
          <dim>20</dim>
          <dim>20</dim>
        </port>
        <port id="1">
          <dim>384</dim>
          <dim>1</dim>
          <dim>1</dim>
          <dim>3</dim>
          <dim>3</dim>
        </port>
      </input>
      <output>
        <port id="2" precision="FP32">
          <dim>1</dim>
          <dim>384</dim>
          <dim>20</dim>
          <dim>20</dim>
        </port>
      </output>
    </layer>
    <layer id="162" name="559/Dims4935/copy_const" type="Const" version="opset1">
      <data element_type="f32" offset="1082396" shape="1,384,1,1" size="1536" />
      <output>
        <port id="1" precision="FP32">
          <dim>1</dim>
          <dim>384</dim>
          <dim>1</dim>
          <dim>1</dim>
        </port>
      </output>
    </layer>
    <layer id="163" name="559" type="Add" version="opset1">
      <input>
        <port id="0">
          <dim>1</dim>
          <dim>384</dim>
          <dim>20</dim>
          <dim>20</dim>
        </port>
        <port id="1">
          <dim>1</dim>
          <dim>384</dim>
          <dim>1</dim>
          <dim>1</dim>
        </port>
      </input>
      <output>
        <port id="2" precision="FP32">
          <dim>1</dim>
          <dim>384</dim>
          <dim>20</dim>
          <dim>20</dim>
        </port>
      </output>
    </layer>
    <layer id="164" name="561" type="ReLU" version="opset1">
      <input>
        <port id="0">
          <dim>1</dim>
          <dim>384</dim>
          <dim>20</dim>
          <dim>20</dim>
        </port>
      </input>
      <output>
        <port id="1" precision="FP32">
          <dim>1</dim>
          <dim>384</dim>
          <dim>20</dim>
          <dim>20</dim>
        </port>
      </output>
    </layer>
    <layer id="165" name="onnx_initializer_node_876/Output_0/Data__const" type="Const" version="opset1">
      <data element_type="f32" offset="1083932" shape="96,384,1,1" size="147456" />
      <output>
        <port id="1" precision="FP32">
          <dim>96</dim>
          <dim>384</dim>
          <dim>1</dim>
          <dim>1</dim>
        </port>
      </output>
    </layer>
    <layer id="166" name="562/WithoutBiases" type="Convolution" version="opset1">
      <data dilations="1,1" output_padding="0,0" pads_begin="0,0" pads_end="0,0" strides="1,1" />
      <input>
        <port id="0">
          <dim>1</dim>
          <dim>384</dim>
          <dim>20</dim>
          <dim>20</dim>
        </port>
        <port id="1">
          <dim>96</dim>
          <dim>384</dim>
          <dim>1</dim>
          <dim>1</dim>
        </port>
      </input>
      <output>
        <port id="2" precision="FP32">
          <dim>1</dim>
          <dim>96</dim>
          <dim>20</dim>
          <dim>20</dim>
        </port>
      </output>
    </layer>
    <layer id="167" name="562/Dims4785/copy_const" type="Const" version="opset1">
      <data element_type="f32" offset="1231388" shape="1,96,1,1" size="384" />
      <output>
        <port id="1" precision="FP32">
          <dim>1</dim>
          <dim>96</dim>
          <dim>1</dim>
          <dim>1</dim>
        </port>
      </output>
    </layer>
    <layer id="168" name="562" type="Add" version="opset1">
      <input>
        <port id="0">
          <dim>1</dim>
          <dim>96</dim>
          <dim>20</dim>
          <dim>20</dim>
        </port>
        <port id="1">
          <dim>1</dim>
          <dim>96</dim>
          <dim>1</dim>
          <dim>1</dim>
        </port>
      </input>
      <output>
        <port id="2" precision="FP32">
          <dim>1</dim>
          <dim>96</dim>
          <dim>20</dim>
          <dim>20</dim>
        </port>
      </output>
    </layer>
    <layer id="169" name="onnx_initializer_node_880/Output_0/Data__const" type="Const" version="opset1">
      <data element_type="f32" offset="1231772" shape="576,96,1,1" size="221184" />
      <output>
        <port id="1" precision="FP32">
          <dim>576</dim>
          <dim>96</dim>
          <dim>1</dim>
          <dim>1</dim>
        </port>
      </output>
    </layer>
    <layer id="170" name="564/WithoutBiases" type="Convolution" version="opset1">
      <data dilations="1,1" output_padding="0,0" pads_begin="0,0" pads_end="0,0" strides="1,1" />
      <input>
        <port id="0">
          <dim>1</dim>
          <dim>96</dim>
          <dim>20</dim>
          <dim>20</dim>
        </port>
        <port id="1">
          <dim>576</dim>
          <dim>96</dim>
          <dim>1</dim>
          <dim>1</dim>
        </port>
      </input>
      <output>
        <port id="2" precision="FP32">
          <dim>1</dim>
          <dim>576</dim>
          <dim>20</dim>
          <dim>20</dim>
        </port>
      </output>
    </layer>
    <layer id="171" name="564/Dims4665/copy_const" type="Const" version="opset1">
      <data element_type="f32" offset="1452956" shape="1,576,1,1" size="2304" />
      <output>
        <port id="1" precision="FP32">
          <dim>1</dim>
          <dim>576</dim>
          <dim>1</dim>
          <dim>1</dim>
        </port>
      </output>
    </layer>
    <layer id="172" name="564" type="Add" version="opset1">
      <input>
        <port id="0">
          <dim>1</dim>
          <dim>576</dim>
          <dim>20</dim>
          <dim>20</dim>
        </port>
        <port id="1">
          <dim>1</dim>
          <dim>576</dim>
          <dim>1</dim>
          <dim>1</dim>
        </port>
      </input>
      <output>
        <port id="2" precision="FP32">
          <dim>1</dim>
          <dim>576</dim>
          <dim>20</dim>
          <dim>20</dim>
        </port>
      </output>
    </layer>
    <layer id="173" name="566" type="ReLU" version="opset1">
      <input>
        <port id="0">
          <dim>1</dim>
          <dim>576</dim>
          <dim>20</dim>
          <dim>20</dim>
        </port>
      </input>
      <output>
        <port id="1" precision="FP32">
          <dim>1</dim>
          <dim>576</dim>
          <dim>20</dim>
          <dim>20</dim>
        </port>
      </output>
    </layer>
    <layer id="174" name="1537115374_const" type="Const" version="opset1">
      <data element_type="f32" offset="1455260" shape="576,1,1,3,3" size="20736" />
      <output>
        <port id="1" precision="FP32">
          <dim>576</dim>
          <dim>1</dim>
          <dim>1</dim>
          <dim>3</dim>
          <dim>3</dim>
        </port>
      </output>
    </layer>
    <layer id="175" name="567/WithoutBiases" type="GroupConvolution" version="opset1">
      <data dilations="1,1" output_padding="0,0" pads_begin="1,1" pads_end="1,1" strides="1,1" />
      <input>
        <port id="0">
          <dim>1</dim>
          <dim>576</dim>
          <dim>20</dim>
          <dim>20</dim>
        </port>
        <port id="1">
          <dim>576</dim>
          <dim>1</dim>
          <dim>1</dim>
          <dim>3</dim>
          <dim>3</dim>
        </port>
      </input>
      <output>
        <port id="2" precision="FP32">
          <dim>1</dim>
          <dim>576</dim>
          <dim>20</dim>
          <dim>20</dim>
        </port>
      </output>
    </layer>
    <layer id="176" name="567/Dims4587/copy_const" type="Const" version="opset1">
      <data element_type="f32" offset="1475996" shape="1,576,1,1" size="2304" />
      <output>
        <port id="1" precision="FP32">
          <dim>1</dim>
          <dim>576</dim>
          <dim>1</dim>
          <dim>1</dim>
        </port>
      </output>
    </layer>
    <layer id="177" name="567" type="Add" version="opset1">
      <input>
        <port id="0">
          <dim>1</dim>
          <dim>576</dim>
          <dim>20</dim>
          <dim>20</dim>
        </port>
        <port id="1">
          <dim>1</dim>
          <dim>576</dim>
          <dim>1</dim>
          <dim>1</dim>
        </port>
      </input>
      <output>
        <port id="2" precision="FP32">
          <dim>1</dim>
          <dim>576</dim>
          <dim>20</dim>
          <dim>20</dim>
        </port>
      </output>
    </layer>
    <layer id="178" name="569" type="ReLU" version="opset1">
      <input>
        <port id="0">
          <dim>1</dim>
          <dim>576</dim>
          <dim>20</dim>
          <dim>20</dim>
        </port>
      </input>
      <output>
        <port id="1" precision="FP32">
          <dim>1</dim>
          <dim>576</dim>
          <dim>20</dim>
          <dim>20</dim>
        </port>
      </output>
    </layer>
    <layer id="179" name="onnx_initializer_node_888/Output_0/Data__const" type="Const" version="opset1">
      <data element_type="f32" offset="1478300" shape="96,576,1,1" size="221184" />
      <output>
        <port id="1" precision="FP32">
          <dim>96</dim>
          <dim>576</dim>
          <dim>1</dim>
          <dim>1</dim>
        </port>
      </output>
    </layer>
    <layer id="180" name="570/WithoutBiases" type="Convolution" version="opset1">
      <data dilations="1,1" output_padding="0,0" pads_begin="0,0" pads_end="0,0" strides="1,1" />
      <input>
        <port id="0">
          <dim>1</dim>
          <dim>576</dim>
          <dim>20</dim>
          <dim>20</dim>
        </port>
        <port id="1">
          <dim>96</dim>
          <dim>576</dim>
          <dim>1</dim>
          <dim>1</dim>
        </port>
      </input>
      <output>
        <port id="2" precision="FP32">
          <dim>1</dim>
          <dim>96</dim>
          <dim>20</dim>
          <dim>20</dim>
        </port>
      </output>
    </layer>
    <layer id="181" name="570/Dims4917/copy_const" type="Const" version="opset1">
      <data element_type="f32" offset="1699484" shape="1,96,1,1" size="384" />
      <output>
        <port id="1" precision="FP32">
          <dim>1</dim>
          <dim>96</dim>
          <dim>1</dim>
          <dim>1</dim>
        </port>
      </output>
    </layer>
    <layer id="182" name="570" type="Add" version="opset1">
      <input>
        <port id="0">
          <dim>1</dim>
          <dim>96</dim>
          <dim>20</dim>
          <dim>20</dim>
        </port>
        <port id="1">
          <dim>1</dim>
          <dim>96</dim>
          <dim>1</dim>
          <dim>1</dim>
        </port>
      </input>
      <output>
        <port id="2" precision="FP32">
          <dim>1</dim>
          <dim>96</dim>
          <dim>20</dim>
          <dim>20</dim>
        </port>
      </output>
    </layer>
    <layer id="183" name="572" type="Add" version="opset1">
      <input>
        <port id="0">
          <dim>1</dim>
          <dim>96</dim>
          <dim>20</dim>
          <dim>20</dim>
        </port>
        <port id="1">
          <dim>1</dim>
          <dim>96</dim>
          <dim>20</dim>
          <dim>20</dim>
        </port>
      </input>
      <output>
        <port id="2" precision="FP32">
          <dim>1</dim>
          <dim>96</dim>
          <dim>20</dim>
          <dim>20</dim>
        </port>
      </output>
    </layer>
    <layer id="184" name="onnx_initializer_node_892/Output_0/Data__const" type="Const" version="opset1">
      <data element_type="f32" offset="1699868" shape="576,96,1,1" size="221184" />
      <output>
        <port id="1" precision="FP32">
          <dim>576</dim>
          <dim>96</dim>
          <dim>1</dim>
          <dim>1</dim>
        </port>
      </output>
    </layer>
    <layer id="185" name="573/WithoutBiases" type="Convolution" version="opset1">
      <data dilations="1,1" output_padding="0,0" pads_begin="0,0" pads_end="0,0" strides="1,1" />
      <input>
        <port id="0">
          <dim>1</dim>
          <dim>96</dim>
          <dim>20</dim>
          <dim>20</dim>
        </port>
        <port id="1">
          <dim>576</dim>
          <dim>96</dim>
          <dim>1</dim>
          <dim>1</dim>
        </port>
      </input>
      <output>
        <port id="2" precision="FP32">
          <dim>1</dim>
          <dim>576</dim>
          <dim>20</dim>
          <dim>20</dim>
        </port>
      </output>
    </layer>
    <layer id="186" name="573/Dims4833/copy_const" type="Const" version="opset1">
      <data element_type="f32" offset="1921052" shape="1,576,1,1" size="2304" />
      <output>
        <port id="1" precision="FP32">
          <dim>1</dim>
          <dim>576</dim>
          <dim>1</dim>
          <dim>1</dim>
        </port>
      </output>
    </layer>
    <layer id="187" name="573" type="Add" version="opset1">
      <input>
        <port id="0">
          <dim>1</dim>
          <dim>576</dim>
          <dim>20</dim>
          <dim>20</dim>
        </port>
        <port id="1">
          <dim>1</dim>
          <dim>576</dim>
          <dim>1</dim>
          <dim>1</dim>
        </port>
      </input>
      <output>
        <port id="2" precision="FP32">
          <dim>1</dim>
          <dim>576</dim>
          <dim>20</dim>
          <dim>20</dim>
        </port>
      </output>
    </layer>
    <layer id="188" name="575" type="ReLU" version="opset1">
      <input>
        <port id="0">
          <dim>1</dim>
          <dim>576</dim>
          <dim>20</dim>
          <dim>20</dim>
        </port>
      </input>
      <output>
        <port id="1" precision="FP32">
          <dim>1</dim>
          <dim>576</dim>
          <dim>20</dim>
          <dim>20</dim>
        </port>
      </output>
    </layer>
    <layer id="189" name="619" type="ReLU" version="opset1">
      <input>
        <port id="0">
          <dim>1</dim>
          <dim>576</dim>
          <dim>20</dim>
          <dim>20</dim>
        </port>
      </input>
      <output>
        <port id="1" precision="FP32">
          <dim>1</dim>
          <dim>576</dim>
          <dim>20</dim>
          <dim>20</dim>
        </port>
      </output>
    </layer>
    <layer id="190" name="1539515398_const" type="Const" version="opset1">
      <data element_type="f32" offset="1923356" shape="576,1,1,3,3" size="20736" />
      <output>
        <port id="1" precision="FP32">
          <dim>576</dim>
          <dim>1</dim>
          <dim>1</dim>
          <dim>3</dim>
          <dim>3</dim>
        </port>
      </output>
    </layer>
    <layer id="191" name="644/WithoutBiases" type="GroupConvolution" version="opset1">
      <data dilations="1,1" output_padding="0,0" pads_begin="1,1" pads_end="1,1" strides="1,1" />
      <input>
        <port id="0">
          <dim>1</dim>
          <dim>576</dim>
          <dim>20</dim>
          <dim>20</dim>
        </port>
        <port id="1">
          <dim>576</dim>
          <dim>1</dim>
          <dim>1</dim>
          <dim>3</dim>
          <dim>3</dim>
        </port>
      </input>
      <output>
        <port id="2" precision="FP32">
          <dim>1</dim>
          <dim>576</dim>
          <dim>20</dim>
          <dim>20</dim>
        </port>
      </output>
    </layer>
    <layer id="192" name="644/Dims4689/copy_const" type="Const" version="opset1">
      <data element_type="f32" offset="1944092" shape="1,576,1,1" size="2304" />
      <output>
        <port id="1" precision="FP32">
          <dim>1</dim>
          <dim>576</dim>
          <dim>1</dim>
          <dim>1</dim>
        </port>
      </output>
    </layer>
    <layer id="193" name="644" type="Add" version="opset1">
      <input>
        <port id="0">
          <dim>1</dim>
          <dim>576</dim>
          <dim>20</dim>
          <dim>20</dim>
        </port>
        <port id="1">
          <dim>1</dim>
          <dim>576</dim>
          <dim>1</dim>
          <dim>1</dim>
        </port>
      </input>
      <output>
        <port id="2" precision="FP32">
          <dim>1</dim>
          <dim>576</dim>
          <dim>20</dim>
          <dim>20</dim>
        </port>
      </output>
    </layer>
    <layer id="194" name="646" type="ReLU" version="opset1">
      <input>
        <port id="0">
          <dim>1</dim>
          <dim>576</dim>
          <dim>20</dim>
          <dim>20</dim>
        </port>
      </input>
      <output>
        <port id="1" precision="FP32">
          <dim>1</dim>
          <dim>576</dim>
          <dim>20</dim>
          <dim>20</dim>
        </port>
      </output>
    </layer>
    <layer id="195" name="onnx_initializer_node_model.detection_blocks.0.conv_loc1.weight/Output_0/Data__const" type="Const" version="opset1">
      <data element_type="f32" offset="1946396" shape="24,576,1,1" size="55296" />
      <output>
        <port id="1" precision="FP32">
          <dim>24</dim>
          <dim>576</dim>
          <dim>1</dim>
          <dim>1</dim>
        </port>
      </output>
    </layer>
    <layer id="196" name="647/WithoutBiases" type="Convolution" version="opset1">
      <data dilations="1,1" output_padding="0,0" pads_begin="0,0" pads_end="0,0" strides="1,1" />
      <input>
        <port id="0">
          <dim>1</dim>
          <dim>576</dim>
          <dim>20</dim>
          <dim>20</dim>
        </port>
        <port id="1">
          <dim>24</dim>
          <dim>576</dim>
          <dim>1</dim>
          <dim>1</dim>
        </port>
      </input>
      <output>
        <port id="2" precision="FP32">
          <dim>1</dim>
          <dim>24</dim>
          <dim>20</dim>
          <dim>20</dim>
        </port>
      </output>
    </layer>
    <layer id="197" name="647/Dims4977/copy_const" type="Const" version="opset1">
      <data element_type="f32" offset="2001692" shape="1,24,1,1" size="96" />
      <output>
        <port id="1" precision="FP32">
          <dim>1</dim>
          <dim>24</dim>
          <dim>1</dim>
          <dim>1</dim>
        </port>
      </output>
    </layer>
    <layer id="198" name="647" type="Add" version="opset1">
      <input>
        <port id="0">
          <dim>1</dim>
          <dim>24</dim>
          <dim>20</dim>
          <dim>20</dim>
        </port>
        <port id="1">
          <dim>1</dim>
          <dim>24</dim>
          <dim>1</dim>
          <dim>1</dim>
        </port>
      </input>
      <output>
        <port id="2" precision="FP32">
          <dim>1</dim>
          <dim>24</dim>
          <dim>20</dim>
          <dim>20</dim>
        </port>
      </output>
    </layer>
    <layer id="199" name="652/Cast_116004_const" type="Const" version="opset1">
      <data element_type="i64" offset="2001788" shape="4" size="32" />
      <output>
        <port id="1" precision="I64">
          <dim>4</dim>
        </port>
      </output>
    </layer>
    <layer id="200" name="652" type="Transpose" version="opset1">
      <input>
        <port id="0">
          <dim>1</dim>
          <dim>24</dim>
          <dim>20</dim>
          <dim>20</dim>
        </port>
        <port id="1">
          <dim>4</dim>
        </port>
      </input>
      <output>
        <port id="2" precision="FP32">
          <dim>1</dim>
          <dim>20</dim>
          <dim>20</dim>
          <dim>24</dim>
        </port>
      </output>
    </layer>
    <layer id="201" name="654/Cast_115992_const" type="Const" version="opset1">
      <data element_type="i64" offset="2001820" shape="3" size="24" />
      <output>
        <port id="1" precision="I64">
          <dim>3</dim>
        </port>
      </output>
    </layer>
    <layer id="202" name="654" type="Reshape" version="opset1">
      <data special_zero="True" />
      <input>
        <port id="0">
          <dim>1</dim>
          <dim>20</dim>
          <dim>20</dim>
          <dim>24</dim>
        </port>
        <port id="1">
          <dim>3</dim>
        </port>
      </input>
      <output>
        <port id="2" precision="FP32">
          <dim>1</dim>
          <dim>2400</dim>
          <dim>4</dim>
        </port>
      </output>
    </layer>
    <layer id="203" name="1541515418_const" type="Const" version="opset1">
      <data element_type="f32" offset="2001844" shape="576,1,1,3,3" size="20736" />
      <output>
        <port id="1" precision="FP32">
          <dim>576</dim>
          <dim>1</dim>
          <dim>1</dim>
          <dim>3</dim>
          <dim>3</dim>
        </port>
      </output>
    </layer>
    <layer id="204" name="576/WithoutBiases" type="GroupConvolution" version="opset1">
      <data dilations="1,1" output_padding="0,0" pads_begin="1,1" pads_end="1,1" strides="1,1" />
      <input>
        <port id="0">
          <dim>1</dim>
          <dim>576</dim>
          <dim>20</dim>
          <dim>20</dim>
        </port>
        <port id="1">
          <dim>576</dim>
          <dim>1</dim>
          <dim>1</dim>
          <dim>3</dim>
          <dim>3</dim>
        </port>
      </input>
      <output>
        <port id="2" precision="FP32">
          <dim>1</dim>
          <dim>576</dim>
          <dim>20</dim>
          <dim>20</dim>
        </port>
      </output>
    </layer>
    <layer id="205" name="576/Dims4755/copy_const" type="Const" version="opset1">
      <data element_type="f32" offset="2022580" shape="1,576,1,1" size="2304" />
      <output>
        <port id="1" precision="FP32">
          <dim>1</dim>
          <dim>576</dim>
          <dim>1</dim>
          <dim>1</dim>
        </port>
      </output>
    </layer>
    <layer id="206" name="576" type="Add" version="opset1">
      <input>
        <port id="0">
          <dim>1</dim>
          <dim>576</dim>
          <dim>20</dim>
          <dim>20</dim>
        </port>
        <port id="1">
          <dim>1</dim>
          <dim>576</dim>
          <dim>1</dim>
          <dim>1</dim>
        </port>
      </input>
      <output>
        <port id="2" precision="FP32">
          <dim>1</dim>
          <dim>576</dim>
          <dim>20</dim>
          <dim>20</dim>
        </port>
      </output>
    </layer>
    <layer id="207" name="578" type="ReLU" version="opset1">
      <input>
        <port id="0">
          <dim>1</dim>
          <dim>576</dim>
          <dim>20</dim>
          <dim>20</dim>
        </port>
      </input>
      <output>
        <port id="1" precision="FP32">
          <dim>1</dim>
          <dim>576</dim>
          <dim>20</dim>
          <dim>20</dim>
        </port>
      </output>
    </layer>
    <layer id="208" name="onnx_initializer_node_900/Output_0/Data__const" type="Const" version="opset1">
      <data element_type="f32" offset="2024884" shape="96,576,1,1" size="221184" />
      <output>
        <port id="1" precision="FP32">
          <dim>96</dim>
          <dim>576</dim>
          <dim>1</dim>
          <dim>1</dim>
        </port>
      </output>
    </layer>
    <layer id="209" name="579/WithoutBiases" type="Convolution" version="opset1">
      <data dilations="1,1" output_padding="0,0" pads_begin="0,0" pads_end="0,0" strides="1,1" />
      <input>
        <port id="0">
          <dim>1</dim>
          <dim>576</dim>
          <dim>20</dim>
          <dim>20</dim>
        </port>
        <port id="1">
          <dim>96</dim>
          <dim>576</dim>
          <dim>1</dim>
          <dim>1</dim>
        </port>
      </input>
      <output>
        <port id="2" precision="FP32">
          <dim>1</dim>
          <dim>96</dim>
          <dim>20</dim>
          <dim>20</dim>
        </port>
      </output>
    </layer>
    <layer id="210" name="579/Dims4527/copy_const" type="Const" version="opset1">
      <data element_type="f32" offset="2246068" shape="1,96,1,1" size="384" />
      <output>
        <port id="1" precision="FP32">
          <dim>1</dim>
          <dim>96</dim>
          <dim>1</dim>
          <dim>1</dim>
        </port>
      </output>
    </layer>
    <layer id="211" name="579" type="Add" version="opset1">
      <input>
        <port id="0">
          <dim>1</dim>
          <dim>96</dim>
          <dim>20</dim>
          <dim>20</dim>
        </port>
        <port id="1">
          <dim>1</dim>
          <dim>96</dim>
          <dim>1</dim>
          <dim>1</dim>
        </port>
      </input>
      <output>
        <port id="2" precision="FP32">
          <dim>1</dim>
          <dim>96</dim>
          <dim>20</dim>
          <dim>20</dim>
        </port>
      </output>
    </layer>
    <layer id="212" name="581" type="Add" version="opset1">
      <input>
        <port id="0">
          <dim>1</dim>
          <dim>96</dim>
          <dim>20</dim>
          <dim>20</dim>
        </port>
        <port id="1">
          <dim>1</dim>
          <dim>96</dim>
          <dim>20</dim>
          <dim>20</dim>
        </port>
      </input>
      <output>
        <port id="2" precision="FP32">
          <dim>1</dim>
          <dim>96</dim>
          <dim>20</dim>
          <dim>20</dim>
        </port>
      </output>
    </layer>
    <layer id="213" name="onnx_initializer_node_904/Output_0/Data__const" type="Const" version="opset1">
      <data element_type="f32" offset="2246452" shape="576,96,1,1" size="221184" />
      <output>
        <port id="1" precision="FP32">
          <dim>576</dim>
          <dim>96</dim>
          <dim>1</dim>
          <dim>1</dim>
        </port>
      </output>
    </layer>
    <layer id="214" name="582/WithoutBiases" type="Convolution" version="opset1">
      <data dilations="1,1" output_padding="0,0" pads_begin="0,0" pads_end="0,0" strides="1,1" />
      <input>
        <port id="0">
          <dim>1</dim>
          <dim>96</dim>
          <dim>20</dim>
          <dim>20</dim>
        </port>
        <port id="1">
          <dim>576</dim>
          <dim>96</dim>
          <dim>1</dim>
          <dim>1</dim>
        </port>
      </input>
      <output>
        <port id="2" precision="FP32">
          <dim>1</dim>
          <dim>576</dim>
          <dim>20</dim>
          <dim>20</dim>
        </port>
      </output>
    </layer>
    <layer id="215" name="582/Dims4629/copy_const" type="Const" version="opset1">
      <data element_type="f32" offset="2467636" shape="1,576,1,1" size="2304" />
      <output>
        <port id="1" precision="FP32">
          <dim>1</dim>
          <dim>576</dim>
          <dim>1</dim>
          <dim>1</dim>
        </port>
      </output>
    </layer>
    <layer id="216" name="582" type="Add" version="opset1">
      <input>
        <port id="0">
          <dim>1</dim>
          <dim>576</dim>
          <dim>20</dim>
          <dim>20</dim>
        </port>
        <port id="1">
          <dim>1</dim>
          <dim>576</dim>
          <dim>1</dim>
          <dim>1</dim>
        </port>
      </input>
      <output>
        <port id="2" precision="FP32">
          <dim>1</dim>
          <dim>576</dim>
          <dim>20</dim>
          <dim>20</dim>
        </port>
      </output>
    </layer>
    <layer id="217" name="584" type="ReLU" version="opset1">
      <input>
        <port id="0">
          <dim>1</dim>
          <dim>576</dim>
          <dim>20</dim>
          <dim>20</dim>
        </port>
      </input>
      <output>
        <port id="1" precision="FP32">
          <dim>1</dim>
          <dim>576</dim>
          <dim>20</dim>
          <dim>20</dim>
        </port>
      </output>
    </layer>
    <layer id="218" name="1537915382_const" type="Const" version="opset1">
      <data element_type="f32" offset="2469940" shape="576,1,1,3,3" size="20736" />
      <output>
        <port id="1" precision="FP32">
          <dim>576</dim>
          <dim>1</dim>
          <dim>1</dim>
          <dim>3</dim>
          <dim>3</dim>
        </port>
      </output>
    </layer>
    <layer id="219" name="585/WithoutBiases" type="GroupConvolution" version="opset1">
      <data dilations="1,1" output_padding="0,0" pads_begin="1,1" pads_end="1,1" strides="2,2" />
      <input>
        <port id="0">
          <dim>1</dim>
          <dim>576</dim>
          <dim>20</dim>
          <dim>20</dim>
        </port>
        <port id="1">
          <dim>576</dim>
          <dim>1</dim>
          <dim>1</dim>
          <dim>3</dim>
          <dim>3</dim>
        </port>
      </input>
      <output>
        <port id="2" precision="FP32">
          <dim>1</dim>
          <dim>576</dim>
          <dim>10</dim>
          <dim>10</dim>
        </port>
      </output>
    </layer>
    <layer id="220" name="585/Dims4605/copy_const" type="Const" version="opset1">
      <data element_type="f32" offset="2490676" shape="1,576,1,1" size="2304" />
      <output>
        <port id="1" precision="FP32">
          <dim>1</dim>
          <dim>576</dim>
          <dim>1</dim>
          <dim>1</dim>
        </port>
      </output>
    </layer>
    <layer id="221" name="585" type="Add" version="opset1">
      <input>
        <port id="0">
          <dim>1</dim>
          <dim>576</dim>
          <dim>10</dim>
          <dim>10</dim>
        </port>
        <port id="1">
          <dim>1</dim>
          <dim>576</dim>
          <dim>1</dim>
          <dim>1</dim>
        </port>
      </input>
      <output>
        <port id="2" precision="FP32">
          <dim>1</dim>
          <dim>576</dim>
          <dim>10</dim>
          <dim>10</dim>
        </port>
      </output>
    </layer>
    <layer id="222" name="587" type="ReLU" version="opset1">
      <input>
        <port id="0">
          <dim>1</dim>
          <dim>576</dim>
          <dim>10</dim>
          <dim>10</dim>
        </port>
      </input>
      <output>
        <port id="1" precision="FP32">
          <dim>1</dim>
          <dim>576</dim>
          <dim>10</dim>
          <dim>10</dim>
        </port>
      </output>
    </layer>
    <layer id="223" name="onnx_initializer_node_912/Output_0/Data__const" type="Const" version="opset1">
      <data element_type="f32" offset="2492980" shape="160,576,1,1" size="368640" />
      <output>
        <port id="1" precision="FP32">
          <dim>160</dim>
          <dim>576</dim>
          <dim>1</dim>
          <dim>1</dim>
        </port>
      </output>
    </layer>
    <layer id="224" name="588/WithoutBiases" type="Convolution" version="opset1">
      <data dilations="1,1" output_padding="0,0" pads_begin="0,0" pads_end="0,0" strides="1,1" />
      <input>
        <port id="0">
          <dim>1</dim>
          <dim>576</dim>
          <dim>10</dim>
          <dim>10</dim>
        </port>
        <port id="1">
          <dim>160</dim>
          <dim>576</dim>
          <dim>1</dim>
          <dim>1</dim>
        </port>
      </input>
      <output>
        <port id="2" precision="FP32">
          <dim>1</dim>
          <dim>160</dim>
          <dim>10</dim>
          <dim>10</dim>
        </port>
      </output>
    </layer>
    <layer id="225" name="588/Dims4701/copy_const" type="Const" version="opset1">
      <data element_type="f32" offset="2861620" shape="1,160,1,1" size="640" />
      <output>
        <port id="1" precision="FP32">
          <dim>1</dim>
          <dim>160</dim>
          <dim>1</dim>
          <dim>1</dim>
        </port>
      </output>
    </layer>
    <layer id="226" name="588" type="Add" version="opset1">
      <input>
        <port id="0">
          <dim>1</dim>
          <dim>160</dim>
          <dim>10</dim>
          <dim>10</dim>
        </port>
        <port id="1">
          <dim>1</dim>
          <dim>160</dim>
          <dim>1</dim>
          <dim>1</dim>
        </port>
      </input>
      <output>
        <port id="2" precision="FP32">
          <dim>1</dim>
          <dim>160</dim>
          <dim>10</dim>
          <dim>10</dim>
        </port>
      </output>
    </layer>
    <layer id="227" name="onnx_initializer_node_916/Output_0/Data__const" type="Const" version="opset1">
      <data element_type="f32" offset="2862260" shape="960,160,1,1" size="614400" />
      <output>
        <port id="1" precision="FP32">
          <dim>960</dim>
          <dim>160</dim>
          <dim>1</dim>
          <dim>1</dim>
        </port>
      </output>
    </layer>
    <layer id="228" name="590/WithoutBiases" type="Convolution" version="opset1">
      <data dilations="1,1" output_padding="0,0" pads_begin="0,0" pads_end="0,0" strides="1,1" />
      <input>
        <port id="0">
          <dim>1</dim>
          <dim>160</dim>
          <dim>10</dim>
          <dim>10</dim>
        </port>
        <port id="1">
          <dim>960</dim>
          <dim>160</dim>
          <dim>1</dim>
          <dim>1</dim>
        </port>
      </input>
      <output>
        <port id="2" precision="FP32">
          <dim>1</dim>
          <dim>960</dim>
          <dim>10</dim>
          <dim>10</dim>
        </port>
      </output>
    </layer>
    <layer id="229" name="590/Dims4839/copy_const" type="Const" version="opset1">
      <data element_type="f32" offset="3476660" shape="1,960,1,1" size="3840" />
      <output>
        <port id="1" precision="FP32">
          <dim>1</dim>
          <dim>960</dim>
          <dim>1</dim>
          <dim>1</dim>
        </port>
      </output>
    </layer>
    <layer id="230" name="590" type="Add" version="opset1">
      <input>
        <port id="0">
          <dim>1</dim>
          <dim>960</dim>
          <dim>10</dim>
          <dim>10</dim>
        </port>
        <port id="1">
          <dim>1</dim>
          <dim>960</dim>
          <dim>1</dim>
          <dim>1</dim>
        </port>
      </input>
      <output>
        <port id="2" precision="FP32">
          <dim>1</dim>
          <dim>960</dim>
          <dim>10</dim>
          <dim>10</dim>
        </port>
      </output>
    </layer>
    <layer id="231" name="592" type="ReLU" version="opset1">
      <input>
        <port id="0">
          <dim>1</dim>
          <dim>960</dim>
          <dim>10</dim>
          <dim>10</dim>
        </port>
      </input>
      <output>
        <port id="1" precision="FP32">
          <dim>1</dim>
          <dim>960</dim>
          <dim>10</dim>
          <dim>10</dim>
        </port>
      </output>
    </layer>
    <layer id="232" name="1547515478_const" type="Const" version="opset1">
      <data element_type="f32" offset="3480500" shape="960,1,1,3,3" size="34560" />
      <output>
        <port id="1" precision="FP32">
          <dim>960</dim>
          <dim>1</dim>
          <dim>1</dim>
          <dim>3</dim>
          <dim>3</dim>
        </port>
      </output>
    </layer>
    <layer id="233" name="593/WithoutBiases" type="GroupConvolution" version="opset1">
      <data dilations="1,1" output_padding="0,0" pads_begin="1,1" pads_end="1,1" strides="1,1" />
      <input>
        <port id="0">
          <dim>1</dim>
          <dim>960</dim>
          <dim>10</dim>
          <dim>10</dim>
        </port>
        <port id="1">
          <dim>960</dim>
          <dim>1</dim>
          <dim>1</dim>
          <dim>3</dim>
          <dim>3</dim>
        </port>
      </input>
      <output>
        <port id="2" precision="FP32">
          <dim>1</dim>
          <dim>960</dim>
          <dim>10</dim>
          <dim>10</dim>
        </port>
      </output>
    </layer>
    <layer id="234" name="593/Dims5001/copy_const" type="Const" version="opset1">
      <data element_type="f32" offset="3515060" shape="1,960,1,1" size="3840" />
      <output>
        <port id="1" precision="FP32">
          <dim>1</dim>
          <dim>960</dim>
          <dim>1</dim>
          <dim>1</dim>
        </port>
      </output>
    </layer>
    <layer id="235" name="593" type="Add" version="opset1">
      <input>
        <port id="0">
          <dim>1</dim>
          <dim>960</dim>
          <dim>10</dim>
          <dim>10</dim>
        </port>
        <port id="1">
          <dim>1</dim>
          <dim>960</dim>
          <dim>1</dim>
          <dim>1</dim>
        </port>
      </input>
      <output>
        <port id="2" precision="FP32">
          <dim>1</dim>
          <dim>960</dim>
          <dim>10</dim>
          <dim>10</dim>
        </port>
      </output>
    </layer>
    <layer id="236" name="595" type="ReLU" version="opset1">
      <input>
        <port id="0">
          <dim>1</dim>
          <dim>960</dim>
          <dim>10</dim>
          <dim>10</dim>
        </port>
      </input>
      <output>
        <port id="1" precision="FP32">
          <dim>1</dim>
          <dim>960</dim>
          <dim>10</dim>
          <dim>10</dim>
        </port>
      </output>
    </layer>
    <layer id="237" name="onnx_initializer_node_924/Output_0/Data__const" type="Const" version="opset1">
      <data element_type="f32" offset="3518900" shape="160,960,1,1" size="614400" />
      <output>
        <port id="1" precision="FP32">
          <dim>160</dim>
          <dim>960</dim>
          <dim>1</dim>
          <dim>1</dim>
        </port>
      </output>
    </layer>
    <layer id="238" name="596/WithoutBiases" type="Convolution" version="opset1">
      <data dilations="1,1" output_padding="0,0" pads_begin="0,0" pads_end="0,0" strides="1,1" />
      <input>
        <port id="0">
          <dim>1</dim>
          <dim>960</dim>
          <dim>10</dim>
          <dim>10</dim>
        </port>
        <port id="1">
          <dim>160</dim>
          <dim>960</dim>
          <dim>1</dim>
          <dim>1</dim>
        </port>
      </input>
      <output>
        <port id="2" precision="FP32">
          <dim>1</dim>
          <dim>160</dim>
          <dim>10</dim>
          <dim>10</dim>
        </port>
      </output>
    </layer>
    <layer id="239" name="596/Dims4533/copy_const" type="Const" version="opset1">
      <data element_type="f32" offset="4133300" shape="1,160,1,1" size="640" />
      <output>
        <port id="1" precision="FP32">
          <dim>1</dim>
          <dim>160</dim>
          <dim>1</dim>
          <dim>1</dim>
        </port>
      </output>
    </layer>
    <layer id="240" name="596" type="Add" version="opset1">
      <input>
        <port id="0">
          <dim>1</dim>
          <dim>160</dim>
          <dim>10</dim>
          <dim>10</dim>
        </port>
        <port id="1">
          <dim>1</dim>
          <dim>160</dim>
          <dim>1</dim>
          <dim>1</dim>
        </port>
      </input>
      <output>
        <port id="2" precision="FP32">
          <dim>1</dim>
          <dim>160</dim>
          <dim>10</dim>
          <dim>10</dim>
        </port>
      </output>
    </layer>
    <layer id="241" name="598" type="Add" version="opset1">
      <input>
        <port id="0">
          <dim>1</dim>
          <dim>160</dim>
          <dim>10</dim>
          <dim>10</dim>
        </port>
        <port id="1">
          <dim>1</dim>
          <dim>160</dim>
          <dim>10</dim>
          <dim>10</dim>
        </port>
      </input>
      <output>
        <port id="2" precision="FP32">
          <dim>1</dim>
          <dim>160</dim>
          <dim>10</dim>
          <dim>10</dim>
        </port>
      </output>
    </layer>
    <layer id="242" name="onnx_initializer_node_928/Output_0/Data__const" type="Const" version="opset1">
      <data element_type="f32" offset="4133940" shape="960,160,1,1" size="614400" />
      <output>
        <port id="1" precision="FP32">
          <dim>960</dim>
          <dim>160</dim>
          <dim>1</dim>
          <dim>1</dim>
        </port>
      </output>
    </layer>
    <layer id="243" name="599/WithoutBiases" type="Convolution" version="opset1">
      <data dilations="1,1" output_padding="0,0" pads_begin="0,0" pads_end="0,0" strides="1,1" />
      <input>
        <port id="0">
          <dim>1</dim>
          <dim>160</dim>
          <dim>10</dim>
          <dim>10</dim>
        </port>
        <port id="1">
          <dim>960</dim>
          <dim>160</dim>
          <dim>1</dim>
          <dim>1</dim>
        </port>
      </input>
      <output>
        <port id="2" precision="FP32">
          <dim>1</dim>
          <dim>960</dim>
          <dim>10</dim>
          <dim>10</dim>
        </port>
      </output>
    </layer>
    <layer id="244" name="599/Dims4659/copy_const" type="Const" version="opset1">
      <data element_type="f32" offset="4748340" shape="1,960,1,1" size="3840" />
      <output>
        <port id="1" precision="FP32">
          <dim>1</dim>
          <dim>960</dim>
          <dim>1</dim>
          <dim>1</dim>
        </port>
      </output>
    </layer>
    <layer id="245" name="599" type="Add" version="opset1">
      <input>
        <port id="0">
          <dim>1</dim>
          <dim>960</dim>
          <dim>10</dim>
          <dim>10</dim>
        </port>
        <port id="1">
          <dim>1</dim>
          <dim>960</dim>
          <dim>1</dim>
          <dim>1</dim>
        </port>
      </input>
      <output>
        <port id="2" precision="FP32">
          <dim>1</dim>
          <dim>960</dim>
          <dim>10</dim>
          <dim>10</dim>
        </port>
      </output>
    </layer>
    <layer id="246" name="601" type="ReLU" version="opset1">
      <input>
        <port id="0">
          <dim>1</dim>
          <dim>960</dim>
          <dim>10</dim>
          <dim>10</dim>
        </port>
      </input>
      <output>
        <port id="1" precision="FP32">
          <dim>1</dim>
          <dim>960</dim>
          <dim>10</dim>
          <dim>10</dim>
        </port>
      </output>
    </layer>
    <layer id="247" name="1543115434_const" type="Const" version="opset1">
      <data element_type="f32" offset="4752180" shape="960,1,1,3,3" size="34560" />
      <output>
        <port id="1" precision="FP32">
          <dim>960</dim>
          <dim>1</dim>
          <dim>1</dim>
          <dim>3</dim>
          <dim>3</dim>
        </port>
      </output>
    </layer>
    <layer id="248" name="602/WithoutBiases" type="GroupConvolution" version="opset1">
      <data dilations="1,1" output_padding="0,0" pads_begin="1,1" pads_end="1,1" strides="1,1" />
      <input>
        <port id="0">
          <dim>1</dim>
          <dim>960</dim>
          <dim>10</dim>
          <dim>10</dim>
        </port>
        <port id="1">
          <dim>960</dim>
          <dim>1</dim>
          <dim>1</dim>
          <dim>3</dim>
          <dim>3</dim>
        </port>
      </input>
      <output>
        <port id="2" precision="FP32">
          <dim>1</dim>
          <dim>960</dim>
          <dim>10</dim>
          <dim>10</dim>
        </port>
      </output>
    </layer>
    <layer id="249" name="602/Dims4809/copy_const" type="Const" version="opset1">
      <data element_type="f32" offset="4786740" shape="1,960,1,1" size="3840" />
      <output>
        <port id="1" precision="FP32">
          <dim>1</dim>
          <dim>960</dim>
          <dim>1</dim>
          <dim>1</dim>
        </port>
      </output>
    </layer>
    <layer id="250" name="602" type="Add" version="opset1">
      <input>
        <port id="0">
          <dim>1</dim>
          <dim>960</dim>
          <dim>10</dim>
          <dim>10</dim>
        </port>
        <port id="1">
          <dim>1</dim>
          <dim>960</dim>
          <dim>1</dim>
          <dim>1</dim>
        </port>
      </input>
      <output>
        <port id="2" precision="FP32">
          <dim>1</dim>
          <dim>960</dim>
          <dim>10</dim>
          <dim>10</dim>
        </port>
      </output>
    </layer>
    <layer id="251" name="604" type="ReLU" version="opset1">
      <input>
        <port id="0">
          <dim>1</dim>
          <dim>960</dim>
          <dim>10</dim>
          <dim>10</dim>
        </port>
      </input>
      <output>
        <port id="1" precision="FP32">
          <dim>1</dim>
          <dim>960</dim>
          <dim>10</dim>
          <dim>10</dim>
        </port>
      </output>
    </layer>
    <layer id="252" name="onnx_initializer_node_936/Output_0/Data__const" type="Const" version="opset1">
      <data element_type="f32" offset="4790580" shape="160,960,1,1" size="614400" />
      <output>
        <port id="1" precision="FP32">
          <dim>160</dim>
          <dim>960</dim>
          <dim>1</dim>
          <dim>1</dim>
        </port>
      </output>
    </layer>
    <layer id="253" name="605/WithoutBiases" type="Convolution" version="opset1">
      <data dilations="1,1" output_padding="0,0" pads_begin="0,0" pads_end="0,0" strides="1,1" />
      <input>
        <port id="0">
          <dim>1</dim>
          <dim>960</dim>
          <dim>10</dim>
          <dim>10</dim>
        </port>
        <port id="1">
          <dim>160</dim>
          <dim>960</dim>
          <dim>1</dim>
          <dim>1</dim>
        </port>
      </input>
      <output>
        <port id="2" precision="FP32">
          <dim>1</dim>
          <dim>160</dim>
          <dim>10</dim>
          <dim>10</dim>
        </port>
      </output>
    </layer>
    <layer id="254" name="605/Dims4827/copy_const" type="Const" version="opset1">
      <data element_type="f32" offset="5404980" shape="1,160,1,1" size="640" />
      <output>
        <port id="1" precision="FP32">
          <dim>1</dim>
          <dim>160</dim>
          <dim>1</dim>
          <dim>1</dim>
        </port>
      </output>
    </layer>
    <layer id="255" name="605" type="Add" version="opset1">
      <input>
        <port id="0">
          <dim>1</dim>
          <dim>160</dim>
          <dim>10</dim>
          <dim>10</dim>
        </port>
        <port id="1">
          <dim>1</dim>
          <dim>160</dim>
          <dim>1</dim>
          <dim>1</dim>
        </port>
      </input>
      <output>
        <port id="2" precision="FP32">
          <dim>1</dim>
          <dim>160</dim>
          <dim>10</dim>
          <dim>10</dim>
        </port>
      </output>
    </layer>
    <layer id="256" name="607" type="Add" version="opset1">
      <input>
        <port id="0">
          <dim>1</dim>
          <dim>160</dim>
          <dim>10</dim>
          <dim>10</dim>
        </port>
        <port id="1">
          <dim>1</dim>
          <dim>160</dim>
          <dim>10</dim>
          <dim>10</dim>
        </port>
      </input>
      <output>
        <port id="2" precision="FP32">
          <dim>1</dim>
          <dim>160</dim>
          <dim>10</dim>
          <dim>10</dim>
        </port>
      </output>
    </layer>
    <layer id="257" name="onnx_initializer_node_940/Output_0/Data__const" type="Const" version="opset1">
      <data element_type="f32" offset="5405620" shape="960,160,1,1" size="614400" />
      <output>
        <port id="1" precision="FP32">
          <dim>960</dim>
          <dim>160</dim>
          <dim>1</dim>
          <dim>1</dim>
        </port>
      </output>
    </layer>
    <layer id="258" name="608/WithoutBiases" type="Convolution" version="opset1">
      <data dilations="1,1" output_padding="0,0" pads_begin="0,0" pads_end="0,0" strides="1,1" />
      <input>
        <port id="0">
          <dim>1</dim>
          <dim>160</dim>
          <dim>10</dim>
          <dim>10</dim>
        </port>
        <port id="1">
          <dim>960</dim>
          <dim>160</dim>
          <dim>1</dim>
          <dim>1</dim>
        </port>
      </input>
      <output>
        <port id="2" precision="FP32">
          <dim>1</dim>
          <dim>960</dim>
          <dim>10</dim>
          <dim>10</dim>
        </port>
      </output>
    </layer>
    <layer id="259" name="608/Dims4695/copy_const" type="Const" version="opset1">
      <data element_type="f32" offset="6020020" shape="1,960,1,1" size="3840" />
      <output>
        <port id="1" precision="FP32">
          <dim>1</dim>
          <dim>960</dim>
          <dim>1</dim>
          <dim>1</dim>
        </port>
      </output>
    </layer>
    <layer id="260" name="608" type="Add" version="opset1">
      <input>
        <port id="0">
          <dim>1</dim>
          <dim>960</dim>
          <dim>10</dim>
          <dim>10</dim>
        </port>
        <port id="1">
          <dim>1</dim>
          <dim>960</dim>
          <dim>1</dim>
          <dim>1</dim>
        </port>
      </input>
      <output>
        <port id="2" precision="FP32">
          <dim>1</dim>
          <dim>960</dim>
          <dim>10</dim>
          <dim>10</dim>
        </port>
      </output>
    </layer>
    <layer id="261" name="610" type="ReLU" version="opset1">
      <input>
        <port id="0">
          <dim>1</dim>
          <dim>960</dim>
          <dim>10</dim>
          <dim>10</dim>
        </port>
      </input>
      <output>
        <port id="1" precision="FP32">
          <dim>1</dim>
          <dim>960</dim>
          <dim>10</dim>
          <dim>10</dim>
        </port>
      </output>
    </layer>
    <layer id="262" name="1536315366_const" type="Const" version="opset1">
      <data element_type="f32" offset="6023860" shape="960,1,1,3,3" size="34560" />
      <output>
        <port id="1" precision="FP32">
          <dim>960</dim>
          <dim>1</dim>
          <dim>1</dim>
          <dim>3</dim>
          <dim>3</dim>
        </port>
      </output>
    </layer>
    <layer id="263" name="611/WithoutBiases" type="GroupConvolution" version="opset1">
      <data dilations="1,1" output_padding="0,0" pads_begin="1,1" pads_end="1,1" strides="1,1" />
      <input>
        <port id="0">
          <dim>1</dim>
          <dim>960</dim>
          <dim>10</dim>
          <dim>10</dim>
        </port>
        <port id="1">
          <dim>960</dim>
          <dim>1</dim>
          <dim>1</dim>
          <dim>3</dim>
          <dim>3</dim>
        </port>
      </input>
      <output>
        <port id="2" precision="FP32">
          <dim>1</dim>
          <dim>960</dim>
          <dim>10</dim>
          <dim>10</dim>
        </port>
      </output>
    </layer>
    <layer id="264" name="611/Dims4575/copy_const" type="Const" version="opset1">
      <data element_type="f32" offset="6058420" shape="1,960,1,1" size="3840" />
      <output>
        <port id="1" precision="FP32">
          <dim>1</dim>
          <dim>960</dim>
          <dim>1</dim>
          <dim>1</dim>
        </port>
      </output>
    </layer>
    <layer id="265" name="611" type="Add" version="opset1">
      <input>
        <port id="0">
          <dim>1</dim>
          <dim>960</dim>
          <dim>10</dim>
          <dim>10</dim>
        </port>
        <port id="1">
          <dim>1</dim>
          <dim>960</dim>
          <dim>1</dim>
          <dim>1</dim>
        </port>
      </input>
      <output>
        <port id="2" precision="FP32">
          <dim>1</dim>
          <dim>960</dim>
          <dim>10</dim>
          <dim>10</dim>
        </port>
      </output>
    </layer>
    <layer id="266" name="613" type="ReLU" version="opset1">
      <input>
        <port id="0">
          <dim>1</dim>
          <dim>960</dim>
          <dim>10</dim>
          <dim>10</dim>
        </port>
      </input>
      <output>
        <port id="1" precision="FP32">
          <dim>1</dim>
          <dim>960</dim>
          <dim>10</dim>
          <dim>10</dim>
        </port>
      </output>
    </layer>
    <layer id="267" name="onnx_initializer_node_948/Output_0/Data__const" type="Const" version="opset1">
      <data element_type="f32" offset="6062260" shape="320,960,1,1" size="1228800" />
      <output>
        <port id="1" precision="FP32">
          <dim>320</dim>
          <dim>960</dim>
          <dim>1</dim>
          <dim>1</dim>
        </port>
      </output>
    </layer>
    <layer id="268" name="614/WithoutBiases" type="Convolution" version="opset1">
      <data dilations="1,1" output_padding="0,0" pads_begin="0,0" pads_end="0,0" strides="1,1" />
      <input>
        <port id="0">
          <dim>1</dim>
          <dim>960</dim>
          <dim>10</dim>
          <dim>10</dim>
        </port>
        <port id="1">
          <dim>320</dim>
          <dim>960</dim>
          <dim>1</dim>
          <dim>1</dim>
        </port>
      </input>
      <output>
        <port id="2" precision="FP32">
          <dim>1</dim>
          <dim>320</dim>
          <dim>10</dim>
          <dim>10</dim>
        </port>
      </output>
    </layer>
    <layer id="269" name="614/Dims4611/copy_const" type="Const" version="opset1">
      <data element_type="f32" offset="7291060" shape="1,320,1,1" size="1280" />
      <output>
        <port id="1" precision="FP32">
          <dim>1</dim>
          <dim>320</dim>
          <dim>1</dim>
          <dim>1</dim>
        </port>
      </output>
    </layer>
    <layer id="270" name="614" type="Add" version="opset1">
      <input>
        <port id="0">
          <dim>1</dim>
          <dim>320</dim>
          <dim>10</dim>
          <dim>10</dim>
        </port>
        <port id="1">
          <dim>1</dim>
          <dim>320</dim>
          <dim>1</dim>
          <dim>1</dim>
        </port>
      </input>
      <output>
        <port id="2" precision="FP32">
          <dim>1</dim>
          <dim>320</dim>
          <dim>10</dim>
          <dim>10</dim>
        </port>
      </output>
    </layer>
    <layer id="271" name="onnx_initializer_node_952/Output_0/Data__const" type="Const" version="opset1">
      <data element_type="f32" offset="7292340" shape="1280,320,1,1" size="1638400" />
      <output>
        <port id="1" precision="FP32">
          <dim>1280</dim>
          <dim>320</dim>
          <dim>1</dim>
          <dim>1</dim>
        </port>
      </output>
    </layer>
    <layer id="272" name="616/WithoutBiases" type="Convolution" version="opset1">
      <data dilations="1,1" output_padding="0,0" pads_begin="0,0" pads_end="0,0" strides="1,1" />
      <input>
        <port id="0">
          <dim>1</dim>
          <dim>320</dim>
          <dim>10</dim>
          <dim>10</dim>
        </port>
        <port id="1">
          <dim>1280</dim>
          <dim>320</dim>
          <dim>1</dim>
          <dim>1</dim>
        </port>
      </input>
      <output>
        <port id="2" precision="FP32">
          <dim>1</dim>
          <dim>1280</dim>
          <dim>10</dim>
          <dim>10</dim>
        </port>
      </output>
    </layer>
    <layer id="273" name="616/Dims4761/copy_const" type="Const" version="opset1">
      <data element_type="f32" offset="8930740" shape="1,1280,1,1" size="5120" />
      <output>
        <port id="1" precision="FP32">
          <dim>1</dim>
          <dim>1280</dim>
          <dim>1</dim>
          <dim>1</dim>
        </port>
      </output>
    </layer>
    <layer id="274" name="616" type="Add" version="opset1">
      <input>
        <port id="0">
          <dim>1</dim>
          <dim>1280</dim>
          <dim>10</dim>
          <dim>10</dim>
        </port>
        <port id="1">
          <dim>1</dim>
          <dim>1280</dim>
          <dim>1</dim>
          <dim>1</dim>
        </port>
      </input>
      <output>
        <port id="2" precision="FP32">
          <dim>1</dim>
          <dim>1280</dim>
          <dim>10</dim>
          <dim>10</dim>
        </port>
      </output>
    </layer>
    <layer id="275" name="618" type="ReLU" version="opset1">
      <input>
        <port id="0">
          <dim>1</dim>
          <dim>1280</dim>
          <dim>10</dim>
          <dim>10</dim>
        </port>
      </input>
      <output>
        <port id="1" precision="FP32">
          <dim>1</dim>
          <dim>1280</dim>
          <dim>10</dim>
          <dim>10</dim>
        </port>
      </output>
    </layer>
    <layer id="276" name="1546315466_const" type="Const" version="opset1">
      <data element_type="f32" offset="8935860" shape="1280,1,1,3,3" size="46080" />
      <output>
        <port id="1" precision="FP32">
          <dim>1280</dim>
          <dim>1</dim>
          <dim>1</dim>
          <dim>3</dim>
          <dim>3</dim>
        </port>
      </output>
    </layer>
    <layer id="277" name="658/WithoutBiases" type="GroupConvolution" version="opset1">
      <data dilations="1,1" output_padding="0,0" pads_begin="1,1" pads_end="1,1" strides="1,1" />
      <input>
        <port id="0">
          <dim>1</dim>
          <dim>1280</dim>
          <dim>10</dim>
          <dim>10</dim>
        </port>
        <port id="1">
          <dim>1280</dim>
          <dim>1</dim>
          <dim>1</dim>
          <dim>3</dim>
          <dim>3</dim>
        </port>
      </input>
      <output>
        <port id="2" precision="FP32">
          <dim>1</dim>
          <dim>1280</dim>
          <dim>10</dim>
          <dim>10</dim>
        </port>
      </output>
    </layer>
    <layer id="278" name="658/Dims4965/copy_const" type="Const" version="opset1">
      <data element_type="f32" offset="8981940" shape="1,1280,1,1" size="5120" />
      <output>
        <port id="1" precision="FP32">
          <dim>1</dim>
          <dim>1280</dim>
          <dim>1</dim>
          <dim>1</dim>
        </port>
      </output>
    </layer>
    <layer id="279" name="658" type="Add" version="opset1">
      <input>
        <port id="0">
          <dim>1</dim>
          <dim>1280</dim>
          <dim>10</dim>
          <dim>10</dim>
        </port>
        <port id="1">
          <dim>1</dim>
          <dim>1280</dim>
          <dim>1</dim>
          <dim>1</dim>
        </port>
      </input>
      <output>
        <port id="2" precision="FP32">
          <dim>1</dim>
          <dim>1280</dim>
          <dim>10</dim>
          <dim>10</dim>
        </port>
      </output>
    </layer>
    <layer id="280" name="660" type="ReLU" version="opset1">
      <input>
        <port id="0">
          <dim>1</dim>
          <dim>1280</dim>
          <dim>10</dim>
          <dim>10</dim>
        </port>
      </input>
      <output>
        <port id="1" precision="FP32">
          <dim>1</dim>
          <dim>1280</dim>
          <dim>10</dim>
          <dim>10</dim>
        </port>
      </output>
    </layer>
    <layer id="281" name="onnx_initializer_node_model.detection_blocks.1.conv_loc1.weight/Output_0/Data__const" type="Const" version="opset1">
      <data element_type="f32" offset="8987060" shape="24,1280,1,1" size="122880" />
      <output>
        <port id="1" precision="FP32">
          <dim>24</dim>
          <dim>1280</dim>
          <dim>1</dim>
          <dim>1</dim>
        </port>
      </output>
    </layer>
    <layer id="282" name="661/WithoutBiases" type="Convolution" version="opset1">
      <data dilations="1,1" output_padding="0,0" pads_begin="0,0" pads_end="0,0" strides="1,1" />
      <input>
        <port id="0">
          <dim>1</dim>
          <dim>1280</dim>
          <dim>10</dim>
          <dim>10</dim>
        </port>
        <port id="1">
          <dim>24</dim>
          <dim>1280</dim>
          <dim>1</dim>
          <dim>1</dim>
        </port>
      </input>
      <output>
        <port id="2" precision="FP32">
          <dim>1</dim>
          <dim>24</dim>
          <dim>10</dim>
          <dim>10</dim>
        </port>
      </output>
    </layer>
    <layer id="283" name="661/Dims4569/copy_const" type="Const" version="opset1">
      <data element_type="f32" offset="9109940" shape="1,24,1,1" size="96" />
      <output>
        <port id="1" precision="FP32">
          <dim>1</dim>
          <dim>24</dim>
          <dim>1</dim>
          <dim>1</dim>
        </port>
      </output>
    </layer>
    <layer id="284" name="661" type="Add" version="opset1">
      <input>
        <port id="0">
          <dim>1</dim>
          <dim>24</dim>
          <dim>10</dim>
          <dim>10</dim>
        </port>
        <port id="1">
          <dim>1</dim>
          <dim>24</dim>
          <dim>1</dim>
          <dim>1</dim>
        </port>
      </input>
      <output>
        <port id="2" precision="FP32">
          <dim>1</dim>
          <dim>24</dim>
          <dim>10</dim>
          <dim>10</dim>
        </port>
      </output>
    </layer>
    <layer id="285" name="666/Cast_115978_const" type="Const" version="opset1">
      <data element_type="i64" offset="2001788" shape="4" size="32" />
      <output>
        <port id="1" precision="I64">
          <dim>4</dim>
        </port>
      </output>
    </layer>
    <layer id="286" name="666" type="Transpose" version="opset1">
      <input>
        <port id="0">
          <dim>1</dim>
          <dim>24</dim>
          <dim>10</dim>
          <dim>10</dim>
        </port>
        <port id="1">
          <dim>4</dim>
        </port>
      </input>
      <output>
        <port id="2" precision="FP32">
          <dim>1</dim>
          <dim>10</dim>
          <dim>10</dim>
          <dim>24</dim>
        </port>
      </output>
    </layer>
    <layer id="287" name="668/Cast_116022_const" type="Const" version="opset1">
      <data element_type="i64" offset="2001820" shape="3" size="24" />
      <output>
        <port id="1" precision="I64">
          <dim>3</dim>
        </port>
      </output>
    </layer>
    <layer id="288" name="668" type="Reshape" version="opset1">
      <data special_zero="True" />
      <input>
        <port id="0">
          <dim>1</dim>
          <dim>10</dim>
          <dim>10</dim>
          <dim>24</dim>
        </port>
        <port id="1">
          <dim>3</dim>
        </port>
      </input>
      <output>
        <port id="2" precision="FP32">
          <dim>1</dim>
          <dim>600</dim>
          <dim>4</dim>
        </port>
      </output>
    </layer>
    <layer id="289" name="1535515358_const" type="Const" version="opset1">
      <data element_type="f32" offset="9110036" shape="1280,1,1,3,3" size="46080" />
      <output>
        <port id="1" precision="FP32">
          <dim>1280</dim>
          <dim>1</dim>
          <dim>1</dim>
          <dim>3</dim>
          <dim>3</dim>
        </port>
      </output>
    </layer>
    <layer id="290" name="620/WithoutBiases" type="GroupConvolution" version="opset1">
      <data dilations="1,1" output_padding="0,0" pads_begin="1,1" pads_end="1,1" strides="2,2" />
      <input>
        <port id="0">
          <dim>1</dim>
          <dim>1280</dim>
          <dim>10</dim>
          <dim>10</dim>
        </port>
        <port id="1">
          <dim>1280</dim>
          <dim>1</dim>
          <dim>1</dim>
          <dim>3</dim>
          <dim>3</dim>
        </port>
      </input>
      <output>
        <port id="2" precision="FP32">
          <dim>1</dim>
          <dim>1280</dim>
          <dim>5</dim>
          <dim>5</dim>
        </port>
      </output>
    </layer>
    <layer id="291" name="620/Dims4557/copy_const" type="Const" version="opset1">
      <data element_type="f32" offset="9156116" shape="1,1280,1,1" size="5120" />
      <output>
        <port id="1" precision="FP32">
          <dim>1</dim>
          <dim>1280</dim>
          <dim>1</dim>
          <dim>1</dim>
        </port>
      </output>
    </layer>
    <layer id="292" name="620" type="Add" version="opset1">
      <input>
        <port id="0">
          <dim>1</dim>
          <dim>1280</dim>
          <dim>5</dim>
          <dim>5</dim>
        </port>
        <port id="1">
          <dim>1</dim>
          <dim>1280</dim>
          <dim>1</dim>
          <dim>1</dim>
        </port>
      </input>
      <output>
        <port id="2" precision="FP32">
          <dim>1</dim>
          <dim>1280</dim>
          <dim>5</dim>
          <dim>5</dim>
        </port>
      </output>
    </layer>
    <layer id="293" name="622" type="ReLU" version="opset1">
      <input>
        <port id="0">
          <dim>1</dim>
          <dim>1280</dim>
          <dim>5</dim>
          <dim>5</dim>
        </port>
      </input>
      <output>
        <port id="1" precision="FP32">
          <dim>1</dim>
          <dim>1280</dim>
          <dim>5</dim>
          <dim>5</dim>
        </port>
      </output>
    </layer>
    <layer id="294" name="onnx_initializer_node_960/Output_0/Data__const" type="Const" version="opset1">
      <data element_type="f32" offset="9161236" shape="512,1280,1,1" size="2621440" />
      <output>
        <port id="1" precision="FP32">
          <dim>512</dim>
          <dim>1280</dim>
          <dim>1</dim>
          <dim>1</dim>
        </port>
      </output>
    </layer>
    <layer id="295" name="623/WithoutBiases" type="Convolution" version="opset1">
      <data dilations="1,1" output_padding="0,0" pads_begin="0,0" pads_end="0,0" strides="1,1" />
      <input>
        <port id="0">
          <dim>1</dim>
          <dim>1280</dim>
          <dim>5</dim>
          <dim>5</dim>
        </port>
        <port id="1">
          <dim>512</dim>
          <dim>1280</dim>
          <dim>1</dim>
          <dim>1</dim>
        </port>
      </input>
      <output>
        <port id="2" precision="FP32">
          <dim>1</dim>
          <dim>512</dim>
          <dim>5</dim>
          <dim>5</dim>
        </port>
      </output>
    </layer>
    <layer id="296" name="623/Dims4899/copy_const" type="Const" version="opset1">
      <data element_type="f32" offset="11782676" shape="1,512,1,1" size="2048" />
      <output>
        <port id="1" precision="FP32">
          <dim>1</dim>
          <dim>512</dim>
          <dim>1</dim>
          <dim>1</dim>
        </port>
      </output>
    </layer>
    <layer id="297" name="623" type="Add" version="opset1">
      <input>
        <port id="0">
          <dim>1</dim>
          <dim>512</dim>
          <dim>5</dim>
          <dim>5</dim>
        </port>
        <port id="1">
          <dim>1</dim>
          <dim>512</dim>
          <dim>1</dim>
          <dim>1</dim>
        </port>
      </input>
      <output>
        <port id="2" precision="FP32">
          <dim>1</dim>
          <dim>512</dim>
          <dim>5</dim>
          <dim>5</dim>
        </port>
      </output>
    </layer>
    <layer id="298" name="625" type="ReLU" version="opset1">
      <input>
        <port id="0">
          <dim>1</dim>
          <dim>512</dim>
          <dim>5</dim>
          <dim>5</dim>
        </port>
      </input>
      <output>
        <port id="1" precision="FP32">
          <dim>1</dim>
          <dim>512</dim>
          <dim>5</dim>
          <dim>5</dim>
        </port>
      </output>
    </layer>
    <layer id="299" name="1547915482_const" type="Const" version="opset1">
      <data element_type="f32" offset="11784724" shape="512,1,1,3,3" size="18432" />
      <output>
        <port id="1" precision="FP32">
          <dim>512</dim>
          <dim>1</dim>
          <dim>1</dim>
          <dim>3</dim>
          <dim>3</dim>
        </port>
      </output>
    </layer>
    <layer id="300" name="672/WithoutBiases" type="GroupConvolution" version="opset1">
      <data dilations="1,1" output_padding="0,0" pads_begin="1,1" pads_end="1,1" strides="1,1" />
      <input>
        <port id="0">
          <dim>1</dim>
          <dim>512</dim>
          <dim>5</dim>
          <dim>5</dim>
        </port>
        <port id="1">
          <dim>512</dim>
          <dim>1</dim>
          <dim>1</dim>
          <dim>3</dim>
          <dim>3</dim>
        </port>
      </input>
      <output>
        <port id="2" precision="FP32">
          <dim>1</dim>
          <dim>512</dim>
          <dim>5</dim>
          <dim>5</dim>
        </port>
      </output>
    </layer>
    <layer id="301" name="672/Dims5013/copy_const" type="Const" version="opset1">
      <data element_type="f32" offset="11803156" shape="1,512,1,1" size="2048" />
      <output>
        <port id="1" precision="FP32">
          <dim>1</dim>
          <dim>512</dim>
          <dim>1</dim>
          <dim>1</dim>
        </port>
      </output>
    </layer>
    <layer id="302" name="672" type="Add" version="opset1">
      <input>
        <port id="0">
          <dim>1</dim>
          <dim>512</dim>
          <dim>5</dim>
          <dim>5</dim>
        </port>
        <port id="1">
          <dim>1</dim>
          <dim>512</dim>
          <dim>1</dim>
          <dim>1</dim>
        </port>
      </input>
      <output>
        <port id="2" precision="FP32">
          <dim>1</dim>
          <dim>512</dim>
          <dim>5</dim>
          <dim>5</dim>
        </port>
      </output>
    </layer>
    <layer id="303" name="674" type="ReLU" version="opset1">
      <input>
        <port id="0">
          <dim>1</dim>
          <dim>512</dim>
          <dim>5</dim>
          <dim>5</dim>
        </port>
      </input>
      <output>
        <port id="1" precision="FP32">
          <dim>1</dim>
          <dim>512</dim>
          <dim>5</dim>
          <dim>5</dim>
        </port>
      </output>
    </layer>
    <layer id="304" name="onnx_initializer_node_model.detection_blocks.2.conv_loc1.weight/Output_0/Data__const" type="Const" version="opset1">
      <data element_type="f32" offset="11805204" shape="24,512,1,1" size="49152" />
      <output>
        <port id="1" precision="FP32">
          <dim>24</dim>
          <dim>512</dim>
          <dim>1</dim>
          <dim>1</dim>
        </port>
      </output>
    </layer>
    <layer id="305" name="675/WithoutBiases" type="Convolution" version="opset1">
      <data dilations="1,1" output_padding="0,0" pads_begin="0,0" pads_end="0,0" strides="1,1" />
      <input>
        <port id="0">
          <dim>1</dim>
          <dim>512</dim>
          <dim>5</dim>
          <dim>5</dim>
        </port>
        <port id="1">
          <dim>24</dim>
          <dim>512</dim>
          <dim>1</dim>
          <dim>1</dim>
        </port>
      </input>
      <output>
        <port id="2" precision="FP32">
          <dim>1</dim>
          <dim>24</dim>
          <dim>5</dim>
          <dim>5</dim>
        </port>
      </output>
    </layer>
    <layer id="306" name="675/Dims4779/copy_const" type="Const" version="opset1">
      <data element_type="f32" offset="11854356" shape="1,24,1,1" size="96" />
      <output>
        <port id="1" precision="FP32">
          <dim>1</dim>
          <dim>24</dim>
          <dim>1</dim>
          <dim>1</dim>
        </port>
      </output>
    </layer>
    <layer id="307" name="675" type="Add" version="opset1">
      <input>
        <port id="0">
          <dim>1</dim>
          <dim>24</dim>
          <dim>5</dim>
          <dim>5</dim>
        </port>
        <port id="1">
          <dim>1</dim>
          <dim>24</dim>
          <dim>1</dim>
          <dim>1</dim>
        </port>
      </input>
      <output>
        <port id="2" precision="FP32">
          <dim>1</dim>
          <dim>24</dim>
          <dim>5</dim>
          <dim>5</dim>
        </port>
      </output>
    </layer>
    <layer id="308" name="680/Cast_115960_const" type="Const" version="opset1">
      <data element_type="i64" offset="2001788" shape="4" size="32" />
      <output>
        <port id="1" precision="I64">
          <dim>4</dim>
        </port>
      </output>
    </layer>
    <layer id="309" name="680" type="Transpose" version="opset1">
      <input>
        <port id="0">
          <dim>1</dim>
          <dim>24</dim>
          <dim>5</dim>
          <dim>5</dim>
        </port>
        <port id="1">
          <dim>4</dim>
        </port>
      </input>
      <output>
        <port id="2" precision="FP32">
          <dim>1</dim>
          <dim>5</dim>
          <dim>5</dim>
          <dim>24</dim>
        </port>
      </output>
    </layer>
    <layer id="310" name="682/Cast_115944_const" type="Const" version="opset1">
      <data element_type="i64" offset="2001820" shape="3" size="24" />
      <output>
        <port id="1" precision="I64">
          <dim>3</dim>
        </port>
      </output>
    </layer>
    <layer id="311" name="682" type="Reshape" version="opset1">
      <data special_zero="True" />
      <input>
        <port id="0">
          <dim>1</dim>
          <dim>5</dim>
          <dim>5</dim>
          <dim>24</dim>
        </port>
        <port id="1">
          <dim>3</dim>
        </port>
      </input>
      <output>
        <port id="2" precision="FP32">
          <dim>1</dim>
          <dim>150</dim>
          <dim>4</dim>
        </port>
      </output>
    </layer>
    <layer id="312" name="1538315386_const" type="Const" version="opset1">
      <data element_type="f32" offset="11854452" shape="512,1,1,3,3" size="18432" />
      <output>
        <port id="1" precision="FP32">
          <dim>512</dim>
          <dim>1</dim>
          <dim>1</dim>
          <dim>3</dim>
          <dim>3</dim>
        </port>
      </output>
    </layer>
    <layer id="313" name="626/WithoutBiases" type="GroupConvolution" version="opset1">
      <data dilations="1,1" output_padding="0,0" pads_begin="1,1" pads_end="1,1" strides="2,2" />
      <input>
        <port id="0">
          <dim>1</dim>
          <dim>512</dim>
          <dim>5</dim>
          <dim>5</dim>
        </port>
        <port id="1">
          <dim>512</dim>
          <dim>1</dim>
          <dim>1</dim>
          <dim>3</dim>
          <dim>3</dim>
        </port>
      </input>
      <output>
        <port id="2" precision="FP32">
          <dim>1</dim>
…
      <data element_type="i64" offset="14568380" shape="1" size="8" />
      <output>
        <port id="1" precision="I64">
          <dim>1</dim>
        </port>
      </output>
    </layer>
    <layer id="504" name="selected_box_reshape" type="Reshape" version="opset1">
      <data special_zero="True" />
      <input>
        <port id="0">
          <dim>256</dim>
          <dim>1</dim>
        </port>
        <port id="1">
          <dim>1</dim>
        </port>
      </input>
      <output>
        <port id="2" precision="I32">
          <dim>256</dim>
        </port>
      </output>
    </layer>
    <layer id="505" name="get_selected_boxes675/Cast_215942_const" type="Const" version="opset1">
      <data element_type="i64" offset="14568356" shape="" size="8" />
      <output>
        <port id="1" precision="I64" />
      </output>
    </layer>
    <layer id="506" name="get_selected_boxes675" type="Gather" version="opset1">
      <input>
        <port id="0">
          <dim>1</dim>
          <dim>3234</dim>
          <dim>4</dim>
        </port>
        <port id="1">
          <dim>256</dim>
        </port>
        <port id="2" />
      </input>
      <output>
        <port id="3" precision="FP32">
          <dim>1</dim>
          <dim>256</dim>
          <dim>4</dim>
        </port>
      </output>
    </layer>
    <layer id="507" name="split_detected_cxcy_wh/Split/value/Output_0/Data__const" type="Const" version="opset1">
      <data element_type="i64" offset="14568388" shape="" size="8" />
      <output>
        <port id="1" precision="I64" />
      </output>
    </layer>
    <layer id="508" name="split_detected_cxcy_wh/Split" type="Split" version="opset1">
      <data num_splits="2" />
      <input>
        <port id="0">
          <dim>1</dim>
          <dim>256</dim>
          <dim>4</dim>
        </port>
        <port id="1" />
      </input>
      <output>
        <port id="2" precision="FP32">
          <dim>1</dim>
          <dim>256</dim>
          <dim>2</dim>
        </port>
        <port id="3" precision="FP32">
          <dim>1</dim>
          <dim>256</dim>
          <dim>2</dim>
        </port>
      </output>
    </layer>
    <layer id="509" name="half_wh/reciprocal_/Output_0/Data_/copy_const" type="Const" version="opset1">
      <data element_type="f32" offset="14568396" shape="1,1,1" size="4" />
      <output>
        <port id="1" precision="FP32">
          <dim>1</dim>
          <dim>1</dim>
          <dim>1</dim>
        </port>
      </output>
    </layer>
    <layer id="510" name="half_wh/mul_" type="Multiply" version="opset1">
      <input>
        <port id="0">
          <dim>1</dim>
          <dim>1</dim>
          <dim>1</dim>
        </port>
        <port id="1">
          <dim>1</dim>
          <dim>256</dim>
          <dim>2</dim>
        </port>
      </input>
      <output>
        <port id="2" precision="FP32">
          <dim>1</dim>
          <dim>256</dim>
          <dim>2</dim>
        </port>
      </output>
    </layer>
    <layer id="511" name="detected_x1y1/add_/sub" type="Subtract" version="opset1">
      <input>
        <port id="0">
          <dim>1</dim>
          <dim>256</dim>
          <dim>2</dim>
        </port>
        <port id="1">
          <dim>1</dim>
          <dim>256</dim>
          <dim>2</dim>
        </port>
      </input>
      <output>
        <port id="2" precision="FP32">
          <dim>1</dim>
          <dim>256</dim>
          <dim>2</dim>
        </port>
      </output>
    </layer>
    <layer id="512" name="detected_x2y2" type="Add" version="opset1">
      <input>
        <port id="0">
          <dim>1</dim>
          <dim>256</dim>
          <dim>2</dim>
        </port>
        <port id="1">
          <dim>1</dim>
          <dim>256</dim>
          <dim>2</dim>
        </port>
      </input>
      <output>
        <port id="2" precision="FP32">
          <dim>1</dim>
          <dim>256</dim>
          <dim>2</dim>
        </port>
      </output>
    </layer>
    <layer id="513" name="detected_boxes" type="Concat" version="opset1">
      <data axis="2" />
      <input>
        <port id="0">
          <dim>1</dim>
          <dim>256</dim>
          <dim>2</dim>
        </port>
        <port id="1">
          <dim>1</dim>
          <dim>256</dim>
          <dim>2</dim>
        </port>
      </input>
      <output>
        <port id="2" precision="FP32">
          <dim>1</dim>
          <dim>256</dim>
          <dim>4</dim>
        </port>
      </output>
    </layer>
    <layer id="514" name="detected_boxes/sink_port_0" type="Result" version="opset1">
      <input>
        <port id="0">
          <dim>1</dim>
          <dim>256</dim>
          <dim>4</dim>
        </port>
      </input>
    </layer>
    <layer id="515" name="6180/Cast_115972_const" type="Const" version="opset1">
      <data element_type="i32" offset="14568400" shape="" size="4" />
      <output>
        <port id="1" precision="I32" />
      </output>
    </layer>
    <layer id="516" name="6180" type="TopK" version="opset1">
      <data axis="1" mode="max" sort="index" />
      <input>
        <port id="0">
          <dim>1</dim>
          <dim>-1</dim>
          <dim>3234</dim>
        </port>
        <port id="1" />
      </input>
      <output>
        <port id="2" precision="FP32">
          <dim>1</dim>
          <dim>1</dim>
          <dim>3234</dim>
        </port>
        <port id="3" precision="I32">
          <dim>1</dim>
          <dim>1</dim>
          <dim>3234</dim>
        </port>
      </output>
    </layer>
    <layer id="517" name="get_detected_classes673/Cast_215990_const" type="Const" version="opset1">
      <data element_type="i64" offset="14568388" shape="" size="8" />
      <output>
        <port id="1" precision="I64" />
      </output>
    </layer>
    <layer id="518" name="raw_detected_classes" type="Gather" version="opset1">
      <input>
        <port id="0">
          <dim>1</dim>
          <dim>1</dim>
          <dim>3234</dim>
        </port>
        <port id="1">
          <dim>256</dim>
        </port>
        <port id="2" />
      </input>
      <output>
        <port id="3" precision="I32">
          <dim>1</dim>
          <dim>1</dim>
          <dim>256</dim>
        </port>
      </output>
    </layer>
    <layer id="519" name="result_shape" type="Const" version="opset1">
      <data element_type="i64" offset="14568524" shape="2" size="16" />
      <output>
        <port id="1" precision="I64">
          <dim>2</dim>
        </port>
      </output>
    </layer>
    <layer id="520" name="detected_classes" type="Reshape" version="opset1">
      <data special_zero="True" />
      <input>
        <port id="0">
          <dim>1</dim>
          <dim>1</dim>
          <dim>256</dim>
        </port>
        <port id="1">
          <dim>2</dim>
        </port>
      </input>
      <output>
        <port id="2" precision="I32">
          <dim>1</dim>
          <dim>256</dim>
        </port>
      </output>
    </layer>
    <layer id="521" name="detected_classes/sink_port_0" type="Result" version="opset1">
      <input>
        <port id="0">
          <dim>1</dim>
          <dim>256</dim>
        </port>
      </input>
    </layer>
    <layer id="522" name="get_detected_scores671/Cast_215976_const" type="Const" version="opset1">
      <data element_type="i64" offset="14568388" shape="" size="8" />
      <output>
        <port id="1" precision="I64" />
      </output>
    </layer>
    <layer id="523" name="raw_detected_scores" type="Gather" version="opset1">
      <input>
        <port id="0">
          <dim>1</dim>
          <dim>1</dim>
          <dim>3234</dim>
        </port>
        <port id="1">
          <dim>256</dim>
        </port>
        <port id="2" />
      </input>
      <output>
        <port id="3" precision="FP32">
          <dim>1</dim>
          <dim>1</dim>
          <dim>256</dim>
        </port>
      </output>
    </layer>
    <layer id="524" name="detected_scores" type="Reshape" version="opset1">
      <data special_zero="True" />
      <input>
        <port id="0">
          <dim>1</dim>
          <dim>1</dim>
          <dim>256</dim>
        </port>
        <port id="1">
          <dim>2</dim>
        </port>
      </input>
      <output>
        <port id="2" precision="I32">
          <dim>1</dim>
          <dim>256</dim>
        </port>
      </output>
    </layer>
    <layer id="525" name="detected_scores/sink_port_0" type="Result" version="opset1">
      <input>
        <port id="0">
          <dim>1</dim>
          <dim>256</dim>
        </port>
      </input>
    </layer>
  </layers>
  <edges>
    <edge from-layer="1" from-port="1" to-layer="3" to-port="0" />
    <edge from-layer="2" from-port="0" to-layer="3" to-port="1" />
    <edge from-layer="3" from-port="2" to-layer="5" to-port="0" />
    <edge from-layer="4" from-port="1" to-layer="5" to-port="1" />
    <edge from-layer="5" from-port="2" to-layer="7" to-port="0" />
    <edge from-layer="6" from-port="1" to-layer="7" to-port="1" />
    <edge from-layer="7" from-port="2" to-layer="8" to-port="0" />
    <edge from-layer="8" from-port="1" to-layer="10" to-port="0" />
    <edge from-layer="9" from-port="1" to-layer="10" to-port="1" />
    <edge from-layer="10" from-port="2" to-layer="12" to-port="0" />
    <edge from-layer="11" from-port="1" to-layer="12" to-port="1" />
    <edge from-layer="12" from-port="2" to-layer="13" to-port="0" />
    <edge from-layer="13" from-port="1" to-layer="15" to-port="0" />
    <edge from-layer="14" from-port="1" to-layer="15" to-port="1" />
    <edge from-layer="15" from-port="2" to-layer="17" to-port="0" />
    <edge from-layer="16" from-port="1" to-layer="17" to-port="1" />
    <edge from-layer="17" from-port="2" to-layer="18" to-port="0" />
    <edge from-layer="18" from-port="1" to-layer="20" to-port="0" />
    <edge from-layer="19" from-port="1" to-layer="20" to-port="1" />
    <edge from-layer="20" from-port="2" to-layer="22" to-port="0" />
    <edge from-layer="21" from-port="1" to-layer="22" to-port="1" />
    <edge from-layer="22" from-port="2" to-layer="24" to-port="0" />
    <edge from-layer="23" from-port="1" to-layer="24" to-port="1" />
    <edge from-layer="24" from-port="2" to-layer="26" to-port="0" />
    <edge from-layer="25" from-port="1" to-layer="26" to-port="1" />
    <edge from-layer="26" from-port="2" to-layer="27" to-port="0" />
    <edge from-layer="27" from-port="1" to-layer="29" to-port="0" />
    <edge from-layer="28" from-port="1" to-layer="29" to-port="1" />
    <edge from-layer="29" from-port="2" to-layer="31" to-port="0" />
    <edge from-layer="30" from-port="1" to-layer="31" to-port="1" />
    <edge from-layer="31" from-port="2" to-layer="32" to-port="0" />
    <edge from-layer="32" from-port="1" to-layer="34" to-port="0" />
    <edge from-layer="33" from-port="1" to-layer="34" to-port="1" />
    <edge from-layer="34" from-port="2" to-layer="36" to-port="0" />
    <edge from-layer="35" from-port="1" to-layer="36" to-port="1" />
    <edge from-layer="36" from-port="2" to-layer="38" to-port="0" />
    <edge from-layer="37" from-port="1" to-layer="38" to-port="1" />
    <edge from-layer="38" from-port="2" to-layer="40" to-port="0" />
    <edge from-layer="39" from-port="1" to-layer="40" to-port="1" />
    <edge from-layer="40" from-port="2" to-layer="41" to-port="0" />
    <edge from-layer="41" from-port="1" to-layer="43" to-port="0" />
    <edge from-layer="42" from-port="1" to-layer="43" to-port="1" />
    <edge from-layer="43" from-port="2" to-layer="45" to-port="0" />
    <edge from-layer="44" from-port="1" to-layer="45" to-port="1" />
    <edge from-layer="45" from-port="2" to-layer="46" to-port="0" />
    <edge from-layer="46" from-port="1" to-layer="48" to-port="0" />
    <edge from-layer="47" from-port="1" to-layer="48" to-port="1" />
    <edge from-layer="48" from-port="2" to-layer="50" to-port="0" />
    <edge from-layer="49" from-port="1" to-layer="50" to-port="1" />
    <edge from-layer="50" from-port="2" to-layer="51" to-port="0" />
    <edge from-layer="36" from-port="2" to-layer="51" to-port="1" />
    <edge from-layer="51" from-port="2" to-layer="53" to-port="0" />
    <edge from-layer="52" from-port="1" to-layer="53" to-port="1" />
    <edge from-layer="53" from-port="2" to-layer="55" to-port="0" />
    <edge from-layer="54" from-port="1" to-layer="55" to-port="1" />
    <edge from-layer="55" from-port="2" to-layer="56" to-port="0" />
    <edge from-layer="56" from-port="1" to-layer="58" to-port="0" />
    <edge from-layer="57" from-port="1" to-layer="58" to-port="1" />
    <edge from-layer="58" from-port="2" to-layer="60" to-port="0" />
    <edge from-layer="59" from-port="1" to-layer="60" to-port="1" />
    <edge from-layer="60" from-port="2" to-layer="61" to-port="0" />
    <edge from-layer="61" from-port="1" to-layer="63" to-port="0" />
    <edge from-layer="62" from-port="1" to-layer="63" to-port="1" />
    <edge from-layer="63" from-port="2" to-layer="65" to-port="0" />
    <edge from-layer="64" from-port="1" to-layer="65" to-port="1" />
    <edge from-layer="65" from-port="2" to-layer="67" to-port="0" />
    <edge from-layer="66" from-port="1" to-layer="67" to-port="1" />
    <edge from-layer="67" from-port="2" to-layer="69" to-port="0" />
    <edge from-layer="68" from-port="1" to-layer="69" to-port="1" />
    <edge from-layer="69" from-port="2" to-layer="70" to-port="0" />
    <edge from-layer="70" from-port="1" to-layer="72" to-port="0" />
    <edge from-layer="71" from-port="1" to-layer="72" to-port="1" />
    <edge from-layer="72" from-port="2" to-layer="74" to-port="0" />
    <edge from-layer="73" from-port="1" to-layer="74" to-port="1" />
    <edge from-layer="74" from-port="2" to-layer="75" to-port="0" />
    <edge from-layer="75" from-port="1" to-layer="77" to-port="0" />
    <edge from-layer="76" from-port="1" to-layer="77" to-port="1" />
    <edge from-layer="77" from-port="2" to-layer="79" to-port="0" />
    <edge from-layer="78" from-port="1" to-layer="79" to-port="1" />
    <edge from-layer="79" from-port="2" to-layer="80" to-port="0" />
    <edge from-layer="65" from-port="2" to-layer="80" to-port="1" />
    <edge from-layer="80" from-port="2" to-layer="82" to-port="0" />
    <edge from-layer="81" from-port="1" to-layer="82" to-port="1" />
    <edge from-layer="82" from-port="2" to-layer="84" to-port="0" />
    <edge from-layer="83" from-port="1" to-layer="84" to-port="1" />
    <edge from-layer="84" from-port="2" to-layer="85" to-port="0" />
    <edge from-layer="85" from-port="1" to-layer="87" to-port="0" />
    <edge from-layer="86" from-port="1" to-layer="87" to-port="1" />
    <edge from-layer="87" from-port="2" to-layer="89" to-port="0" />
    <edge from-layer="88" from-port="1" to-layer="89" to-port="1" />
    <edge from-layer="89" from-port="2" to-layer="90" to-port="0" />
    <edge from-layer="90" from-port="1" to-layer="92" to-port="0" />
    <edge from-layer="91" from-port="1" to-layer="92" to-port="1" />
    <edge from-layer="92" from-port="2" to-layer="94" to-port="0" />
    <edge from-layer="93" from-port="1" to-layer="94" to-port="1" />
    <edge from-layer="94" from-port="2" to-layer="95" to-port="0" />
    <edge from-layer="80" from-port="2" to-layer="95" to-port="1" />
    <edge from-layer="95" from-port="2" to-layer="97" to-port="0" />
    <edge from-layer="96" from-port="1" to-layer="97" to-port="1" />
    <edge from-layer="97" from-port="2" to-layer="99" to-port="0" />
    <edge from-layer="98" from-port="1" to-layer="99" to-port="1" />
    <edge from-layer="99" from-port="2" to-layer="100" to-port="0" />
    <edge from-layer="100" from-port="1" to-layer="102" to-port="0" />
    <edge from-layer="101" from-port="1" to-layer="102" to-port="1" />
    <edge from-layer="102" from-port="2" to-layer="104" to-port="0" />
    <edge from-layer="103" from-port="1" to-layer="104" to-port="1" />
    <edge from-layer="104" from-port="2" to-layer="105" to-port="0" />
    <edge from-layer="105" from-port="1" to-layer="107" to-port="0" />
    <edge from-layer="106" from-port="1" to-layer="107" to-port="1" />
    <edge from-layer="107" from-port="2" to-layer="109" to-port="0" />
    <edge from-layer="108" from-port="1" to-layer="109" to-port="1" />
    <edge from-layer="109" from-port="2" to-layer="111" to-port="0" />
    <edge from-layer="110" from-port="1" to-layer="111" to-port="1" />
    <edge from-layer="111" from-port="2" to-layer="113" to-port="0" />
    <edge from-layer="112" from-port="1" to-layer="113" to-port="1" />
    <edge from-layer="113" from-port="2" to-layer="114" to-port="0" />
    <edge from-layer="114" from-port="1" to-layer="116" to-port="0" />
    <edge from-layer="115" from-port="1" to-layer="116" to-port="1" />
    <edge from-layer="116" from-port="2" to-layer="118" to-port="0" />
    <edge from-layer="117" from-port="1" to-layer="118" to-port="1" />
    <edge from-layer="118" from-port="2" to-layer="119" to-port="0" />
    <edge from-layer="119" from-port="1" to-layer="121" to-port="0" />
    <edge from-layer="120" from-port="1" to-layer="121" to-port="1" />
    <edge from-layer="121" from-port="2" to-layer="123" to-port="0" />
    <edge from-layer="122" from-port="1" to-layer="123" to-port="1" />
    <edge from-layer="123" from-port="2" to-layer="124" to-port="0" />
    <edge from-layer="109" from-port="2" to-layer="124" to-port="1" />
    <edge from-layer="124" from-port="2" to-layer="126" to-port="0" />
    <edge from-layer="125" from-port="1" to-layer="126" to-port="1" />
    <edge from-layer="126" from-port="2" to-layer="128" to-port="0" />
    <edge from-layer="127" from-port="1" to-layer="128" to-port="1" />
    <edge from-layer="128" from-port="2" to-layer="129" to-port="0" />
    <edge from-layer="129" from-port="1" to-layer="131" to-port="0" />
    <edge from-layer="130" from-port="1" to-layer="131" to-port="1" />
    <edge from-layer="131" from-port="2" to-layer="133" to-port="0" />
    <edge from-layer="132" from-port="1" to-layer="133" to-port="1" />
    <edge from-layer="133" from-port="2" to-layer="134" to-port="0" />
    <edge from-layer="134" from-port="1" to-layer="136" to-port="0" />
    <edge from-layer="135" from-port="1" to-layer="136" to-port="1" />
    <edge from-layer="136" from-port="2" to-layer="138" to-port="0" />
    <edge from-layer="137" from-port="1" to-layer="138" to-port="1" />
    <edge from-layer="138" from-port="2" to-layer="139" to-port="0" />
    <edge from-layer="124" from-port="2" to-layer="139" to-port="1" />
    <edge from-layer="139" from-port="2" to-layer="141" to-port="0" />
    <edge from-layer="140" from-port="1" to-layer="141" to-port="1" />
    <edge from-layer="141" from-port="2" to-layer="143" to-port="0" />
    <edge from-layer="142" from-port="1" to-layer="143" to-port="1" />
    <edge from-layer="143" from-port="2" to-layer="144" to-port="0" />
    <edge from-layer="144" from-port="1" to-layer="146" to-port="0" />
    <edge from-layer="145" from-port="1" to-layer="146" to-port="1" />
    <edge from-layer="146" from-port="2" to-layer="148" to-port="0" />
    <edge from-layer="147" from-port="1" to-layer="148" to-port="1" />
    <edge from-layer="148" from-port="2" to-layer="149" to-port="0" />
    <edge from-layer="149" from-port="1" to-layer="151" to-port="0" />
    <edge from-layer="150" from-port="1" to-layer="151" to-port="1" />
    <edge from-layer="151" from-port="2" to-layer="153" to-port="0" />
    <edge from-layer="152" from-port="1" to-layer="153" to-port="1" />
    <edge from-layer="153" from-port="2" to-layer="154" to-port="0" />
    <edge from-layer="139" from-port="2" to-layer="154" to-port="1" />
    <edge from-layer="154" from-port="2" to-layer="156" to-port="0" />
    <edge from-layer="155" from-port="1" to-layer="156" to-port="1" />
    <edge from-layer="156" from-port="2" to-layer="158" to-port="0" />
    <edge from-layer="157" from-port="1" to-layer="158" to-port="1" />
    <edge from-layer="158" from-port="2" to-layer="159" to-port="0" />
    <edge from-layer="159" from-port="1" to-layer="161" to-port="0" />
    <edge from-layer="160" from-port="1" to-layer="161" to-port="1" />
    <edge from-layer="161" from-port="2" to-layer="163" to-port="0" />
    <edge from-layer="162" from-port="1" to-layer="163" to-port="1" />
    <edge from-layer="163" from-port="2" to-layer="164" to-port="0" />
    <edge from-layer="164" from-port="1" to-layer="166" to-port="0" />
    <edge from-layer="165" from-port="1" to-layer="166" to-port="1" />
    <edge from-layer="166" from-port="2" to-layer="168" to-port="0" />
    <edge from-layer="167" from-port="1" to-layer="168" to-port="1" />
    <edge from-layer="168" from-port="2" to-layer="170" to-port="0" />
    <edge from-layer="169" from-port="1" to-layer="170" to-port="1" />
    <edge from-layer="170" from-port="2" to-layer="172" to-port="0" />
    <edge from-layer="171" from-port="1" to-layer="172" to-port="1" />
    <edge from-layer="172" from-port="2" to-layer="173" to-port="0" />
    <edge from-layer="173" from-port="1" to-layer="175" to-port="0" />
    <edge from-layer="174" from-port="1" to-layer="175" to-port="1" />
    <edge from-layer="175" from-port="2" to-layer="177" to-port="0" />
    <edge from-layer="176" from-port="1" to-layer="177" to-port="1" />
    <edge from-layer="177" from-port="2" to-layer="178" to-port="0" />
    <edge from-layer="178" from-port="1" to-layer="180" to-port="0" />
    <edge from-layer="179" from-port="1" to-layer="180" to-port="1" />
    <edge from-layer="180" from-port="2" to-layer="182" to-port="0" />
    <edge from-layer="181" from-port="1" to-layer="182" to-port="1" />
    <edge from-layer="182" from-port="2" to-layer="183" to-port="0" />
    <edge from-layer="168" from-port="2" to-layer="183" to-port="1" />
    <edge from-layer="183" from-port="2" to-layer="185" to-port="0" />
    <edge from-layer="184" from-port="1" to-layer="185" to-port="1" />
    <edge from-layer="185" from-port="2" to-layer="187" to-port="0" />
    <edge from-layer="186" from-port="1" to-layer="187" to-port="1" />
    <edge from-layer="187" from-port="2" to-layer="188" to-port="0" />
    <edge from-layer="188" from-port="1" to-layer="189" to-port="0" />
    <edge from-layer="189" from-port="1" to-layer="191" to-port="0" />
    <edge from-layer="190" from-port="1" to-layer="191" to-port="1" />
    <edge from-layer="191" from-port="2" to-layer="193" to-port="0" />
    <edge from-layer="192" from-port="1" to-layer="193" to-port="1" />
    <edge from-layer="193" from-port="2" to-layer="194" to-port="0" />
    <edge from-layer="194" from-port="1" to-layer="196" to-port="0" />
    <edge from-layer="195" from-port="1" to-layer="196" to-port="1" />
    <edge from-layer="196" from-port="2" to-layer="198" to-port="0" />
    <edge from-layer="197" from-port="1" to-layer="198" to-port="1" />
    <edge from-layer="198" from-port="2" to-layer="200" to-port="0" />
    <edge from-layer="199" from-port="1" to-layer="200" to-port="1" />
    <edge from-layer="200" from-port="2" to-layer="202" to-port="0" />
    <edge from-layer="201" from-port="1" to-layer="202" to-port="1" />
    <edge from-layer="188" from-port="1" to-layer="204" to-port="0" />
    <edge from-layer="203" from-port="1" to-layer="204" to-port="1" />
    <edge from-layer="204" from-port="2" to-layer="206" to-port="0" />
    <edge from-layer="205" from-port="1" to-layer="206" to-port="1" />
    <edge from-layer="206" from-port="2" to-layer="207" to-port="0" />
    <edge from-layer="207" from-port="1" to-layer="209" to-port="0" />
    <edge from-layer="208" from-port="1" to-layer="209" to-port="1" />
    <edge from-layer="209" from-port="2" to-layer="211" to-port="0" />
    <edge from-layer="210" from-port="1" to-layer="211" to-port="1" />
    <edge from-layer="211" from-port="2" to-layer="212" to-port="0" />
    <edge from-layer="183" from-port="2" to-layer="212" to-port="1" />
    <edge from-layer="212" from-port="2" to-layer="214" to-port="0" />
    <edge from-layer="213" from-port="1" to-layer="214" to-port="1" />
    <edge from-layer="214" from-port="2" to-layer="216" to-port="0" />
    <edge from-layer="215" from-port="1" to-layer="216" to-port="1" />
    <edge from-layer="216" from-port="2" to-layer="217" to-port="0" />
    <edge from-layer="217" from-port="1" to-layer="219" to-port="0" />
    <edge from-layer="218" from-port="1" to-layer="219" to-port="1" />
    <edge from-layer="219" from-port="2" to-layer="221" to-port="0" />
    <edge from-layer="220" from-port="1" to-layer="221" to-port="1" />
    <edge from-layer="221" from-port="2" to-layer="222" to-port="0" />
    <edge from-layer="222" from-port="1" to-layer="224" to-port="0" />
    <edge from-layer="223" from-port="1" to-layer="224" to-port="1" />
    <edge from-layer="224" from-port="2" to-layer="226" to-port="0" />
    <edge from-layer="225" from-port="1" to-layer="226" to-port="1" />
    <edge from-layer="226" from-port="2" to-layer="228" to-port="0" />
    <edge from-layer="227" from-port="1" to-layer="228" to-port="1" />
    <edge from-layer="228" from-port="2" to-layer="230" to-port="0" />
    <edge from-layer="229" from-port="1" to-layer="230" to-port="1" />
    <edge from-layer="230" from-port="2" to-layer="231" to-port="0" />
    <edge from-layer="231" from-port="1" to-layer="233" to-port="0" />
    <edge from-layer="232" from-port="1" to-layer="233" to-port="1" />
    <edge from-layer="233" from-port="2" to-layer="235" to-port="0" />
    <edge from-layer="234" from-port="1" to-layer="235" to-port="1" />
    <edge from-layer="235" from-port="2" to-layer="236" to-port="0" />
    <edge from-layer="236" from-port="1" to-layer="238" to-port="0" />
    <edge from-layer="237" from-port="1" to-layer="238" to-port="1" />
    <edge from-layer="238" from-port="2" to-layer="240" to-port="0" />
    <edge from-layer="239" from-port="1" to-layer="240" to-port="1" />
    <edge from-layer="240" from-port="2" to-layer="241" to-port="0" />
    <edge from-layer="226" from-port="2" to-layer="241" to-port="1" />
    <edge from-layer="241" from-port="2" to-layer="243" to-port="0" />
    <edge from-layer="242" from-port="1" to-layer="243" to-port="1" />
    <edge from-layer="243" from-port="2" to-layer="245" to-port="0" />
    <edge from-layer="244" from-port="1" to-layer="245" to-port="1" />
    <edge from-layer="245" from-port="2" to-layer="246" to-port="0" />
    <edge from-layer="246" from-port="1" to-layer="248" to-port="0" />
    <edge from-layer="247" from-port="1" to-layer="248" to-port="1" />
    <edge from-layer="248" from-port="2" to-layer="250" to-port="0" />
    <edge from-layer="249" from-port="1" to-layer="250" to-port="1" />
    <edge from-layer="250" from-port="2" to-layer="251" to-port="0" />
    <edge from-layer="251" from-port="1" to-layer="253" to-port="0" />
    <edge from-layer="252" from-port="1" to-layer="253" to-port="1" />
    <edge from-layer="253" from-port="2" to-layer="255" to-port="0" />
    <edge from-layer="254" from-port="1" to-layer="255" to-port="1" />
    <edge from-layer="255" from-port="2" to-layer="256" to-port="0" />
    <edge from-layer="241" from-port="2" to-layer="256" to-port="1" />
    <edge from-layer="256" from-port="2" to-layer="258" to-port="0" />
    <edge from-layer="257" from-port="1" to-layer="258" to-port="1" />
    <edge from-layer="258" from-port="2" to-layer="260" to-port="0" />
    <edge from-layer="259" from-port="1" to-layer="260" to-port="1" />
    <edge from-layer="260" from-port="2" to-layer="261" to-port="0" />
    <edge from-layer="261" from-port="1" to-layer="263" to-port="0" />
    <edge from-layer="262" from-port="1" to-layer="263" to-port="1" />
    <edge from-layer="263" from-port="2" to-layer="265" to-port="0" />
    <edge from-layer="264" from-port="1" to-layer="265" to-port="1" />
    <edge from-layer="265" from-port="2" to-layer="266" to-port="0" />
    <edge from-layer="266" from-port="1" to-layer="268" to-port="0" />
    <edge from-layer="267" from-port="1" to-layer="268" to-port="1" />
    <edge from-layer="268" from-port="2" to-layer="270" to-port="0" />
    <edge from-layer="269" from-port="1" to-layer="270" to-port="1" />
    <edge from-layer="270" from-port="2" to-layer="272" to-port="0" />
    <edge from-layer="271" from-port="1" to-layer="272" to-port="1" />
    <edge from-layer="272" from-port="2" to-layer="274" to-port="0" />
    <edge from-layer="273" from-port="1" to-layer="274" to-port="1" />
    <edge from-layer="274" from-port="2" to-layer="275" to-port="0" />
    <edge from-layer="275" from-port="1" to-layer="277" to-port="0" />
    <edge from-layer="276" from-port="1" to-layer="277" to-port="1" />
    <edge from-layer="277" from-port="2" to-layer="279" to-port="0" />
    <edge from-layer="278" from-port="1" to-layer="279" to-port="1" />
    <edge from-layer="279" from-port="2" to-layer="280" to-port="0" />
    <edge from-layer="280" from-port="1" to-layer="282" to-port="0" />
    <edge from-layer="281" from-port="1" to-layer="282" to-port="1" />
    <edge from-layer="282" from-port="2" to-layer="284" to-port="0" />
    <edge from-layer="283" from-port="1" to-layer="284" to-port="1" />
    <edge from-layer="284" from-port="2" to-layer="286" to-port="0" />
    <edge from-layer="285" from-port="1" to-layer="286" to-port="1" />
    <edge from-layer="286" from-port="2" to-layer="288" to-port="0" />
    <edge from-layer="287" from-port="1" to-layer="288" to-port="1" />
    <edge from-layer="275" from-port="1" to-layer="290" to-port="0" />
    <edge from-layer="289" from-port="1" to-layer="290" to-port="1" />
    <edge from-layer="290" from-port="2" to-layer="292" to-port="0" />
    <edge from-layer="291" from-port="1" to-layer="292" to-port="1" />
    <edge from-layer="292" from-port="2" to-layer="293" to-port="0" />
    <edge from-layer="293" from-port="1" to-layer="295" to-port="0" />
    <edge from-layer="294" from-port="1" to-layer="295" to-port="1" />
    <edge from-layer="295" from-port="2" to-layer="297" to-port="0" />
    <edge from-layer="296" from-port="1" to-layer="297" to-port="1" />
    <edge from-layer="297" from-port="2" to-layer="298" to-port="0" />
    <edge from-layer="298" from-port="1" to-layer="300" to-port="0" />
    <edge from-layer="299" from-port="1" to-layer="300" to-port="1" />
    <edge from-layer="300" from-port="2" to-layer="302" to-port="0" />
    <edge from-layer="301" from-port="1" to-layer="302" to-port="1" />
    <edge from-layer="302" from-port="2" to-layer="303" to-port="0" />
    <edge from-layer="303" from-port="1" to-layer="305" to-port="0" />
    <edge from-layer="304" from-port="1" to-layer="305" to-port="1" />
    <edge from-layer="305" from-port="2" to-layer="307" to-port="0" />
    <edge from-layer="306" from-port="1" to-layer="307" to-port="1" />
    <edge from-layer="307" from-port="2" to-layer="309" to-port="0" />
    <edge from-layer="308" from-port="1" to-layer="309" to-port="1" />
    <edge from-layer="309" from-port="2" to-layer="311" to-port="0" />
    <edge from-layer="310" from-port="1" to-layer="311" to-port="1" />
    <edge from-layer="298" from-port="1" to-layer="313" to-port="0" />
    <edge from-layer="312" from-port="1" to-layer="313" to-port="1" />
    <edge from-layer="313" from-port="2" to-layer="315" to-port="0" />
    <edge from-layer="314" from-port="1" to-layer="315" to-port="1" />
    <edge from-layer="315" from-port="2" to-layer="316" to-port="0" />
    <edge from-layer="316" from-port="1" to-layer="318" to-port="0" />
    <edge from-layer="317" from-port="1" to-layer="318" to-port="1" />
    <edge from-layer="318" from-port="2" to-layer="320" to-port="0" />
    <edge from-layer="319" from-port="1" to-layer="320" to-port="1" />
    <edge from-layer="320" from-port="2" to-layer="321" to-port="0" />
    <edge from-layer="321" from-port="1" to-layer="323" to-port="0" />
    <edge from-layer="322" from-port="1" to-layer="323" to-port="1" />
    <edge from-layer="323" from-port="2" to-layer="325" to-port="0" />
    <edge from-layer="324" from-port="1" to-layer="325" to-port="1" />
    <edge from-layer="325" from-port="2" to-layer="326" to-port="0" />
    <edge from-layer="326" from-port="1" to-layer="328" to-port="0" />
    <edge from-layer="327" from-port="1" to-layer="328" to-port="1" />
    <edge from-layer="328" from-port="2" to-layer="330" to-port="0" />
    <edge from-layer="329" from-port="1" to-layer="330" to-port="1" />
    <edge from-layer="330" from-port="2" to-layer="332" to-port="0" />
    <edge from-layer="331" from-port="1" to-layer="332" to-port="1" />
    <edge from-layer="332" from-port="2" to-layer="334" to-port="0" />
    <edge from-layer="333" from-port="1" to-layer="334" to-port="1" />
    <edge from-layer="321" from-port="1" to-layer="336" to-port="0" />
    <edge from-layer="335" from-port="1" to-layer="336" to-port="1" />
    <edge from-layer="336" from-port="2" to-layer="338" to-port="0" />
    <edge from-layer="337" from-port="1" to-layer="338" to-port="1" />
    <edge from-layer="338" from-port="2" to-layer="339" to-port="0" />
    <edge from-layer="339" from-port="1" to-layer="341" to-port="0" />
    <edge from-layer="340" from-port="1" to-layer="341" to-port="1" />
    <edge from-layer="341" from-port="2" to-layer="343" to-port="0" />
    <edge from-layer="342" from-port="1" to-layer="343" to-port="1" />
    <edge from-layer="343" from-port="2" to-layer="344" to-port="0" />
    <edge from-layer="344" from-port="1" to-layer="346" to-port="0" />
    <edge from-layer="345" from-port="1" to-layer="346" to-port="1" />
    <edge from-layer="346" from-port="2" to-layer="348" to-port="0" />
    <edge from-layer="347" from-port="1" to-layer="348" to-port="1" />
    <edge from-layer="348" from-port="2" to-layer="349" to-port="0" />
    <edge from-layer="349" from-port="1" to-layer="351" to-port="0" />
    <edge from-layer="350" from-port="1" to-layer="351" to-port="1" />
    <edge from-layer="351" from-port="2" to-layer="353" to-port="0" />
    <edge from-layer="352" from-port="1" to-layer="353" to-port="1" />
    <edge from-layer="353" from-port="2" to-layer="355" to-port="0" />
    <edge from-layer="354" from-port="1" to-layer="355" to-port="1" />
    <edge from-layer="355" from-port="2" to-layer="357" to-port="0" />
    <edge from-layer="356" from-port="1" to-layer="357" to-port="1" />
    <edge from-layer="344" from-port="1" to-layer="359" to-port="0" />
    <edge from-layer="358" from-port="1" to-layer="359" to-port="1" />
    <edge from-layer="359" from-port="2" to-layer="361" to-port="0" />
    <edge from-layer="360" from-port="1" to-layer="361" to-port="1" />
    <edge from-layer="361" from-port="2" to-layer="362" to-port="0" />
    <edge from-layer="362" from-port="1" to-layer="364" to-port="0" />
    <edge from-layer="363" from-port="1" to-layer="364" to-port="1" />
    <edge from-layer="364" from-port="2" to-layer="366" to-port="0" />
    <edge from-layer="365" from-port="1" to-layer="366" to-port="1" />
    <edge from-layer="366" from-port="2" to-layer="367" to-port="0" />
    <edge from-layer="367" from-port="1" to-layer="369" to-port="0" />
    <edge from-layer="368" from-port="1" to-layer="369" to-port="1" />
    <edge from-layer="369" from-port="2" to-layer="371" to-port="0" />
    <edge from-layer="370" from-port="1" to-layer="371" to-port="1" />
    <edge from-layer="371" from-port="2" to-layer="372" to-port="0" />
    <edge from-layer="372" from-port="1" to-layer="374" to-port="0" />
    <edge from-layer="373" from-port="1" to-layer="374" to-port="1" />
    <edge from-layer="374" from-port="2" to-layer="376" to-port="0" />
    <edge from-layer="375" from-port="1" to-layer="376" to-port="1" />
    <edge from-layer="376" from-port="2" to-layer="378" to-port="0" />
    <edge from-layer="377" from-port="1" to-layer="378" to-port="1" />
    <edge from-layer="378" from-port="2" to-layer="380" to-port="0" />
    <edge from-layer="379" from-port="1" to-layer="380" to-port="1" />
    <edge from-layer="202" from-port="2" to-layer="381" to-port="0" />
    <edge from-layer="288" from-port="2" to-layer="381" to-port="1" />
    <edge from-layer="311" from-port="2" to-layer="381" to-port="2" />
    <edge from-layer="334" from-port="2" to-layer="381" to-port="3" />
    <edge from-layer="357" from-port="2" to-layer="381" to-port="4" />
    <edge from-layer="380" from-port="2" to-layer="381" to-port="5" />
    <edge from-layer="381" from-port="6" to-layer="383" to-port="0" />
    <edge from-layer="382" from-port="1" to-layer="383" to-port="1" />
    <edge from-layer="383" from-port="2" to-layer="385" to-port="0" />
    <edge from-layer="384" from-port="1" to-layer="385" to-port="1" />
    <edge from-layer="385" from-port="2" to-layer="387" to-port="0" />
    <edge from-layer="386" from-port="1" to-layer="387" to-port="1" />
    <edge from-layer="387" from-port="2" to-layer="389" to-port="0" />
    <edge from-layer="388" from-port="1" to-layer="389" to-port="1" />
    <edge from-layer="389" from-port="2" to-layer="391" to-port="0" />
    <edge from-layer="390" from-port="1" to-layer="391" to-port="1" />
    <edge from-layer="0" from-port="1" to-layer="392" to-port="0" />
    <edge from-layer="391" from-port="2" to-layer="392" to-port="1" />
    <edge from-layer="387" from-port="3" to-layer="395" to-port="0" />
    <edge from-layer="394" from-port="1" to-layer="395" to-port="1" />
    <edge from-layer="395" from-port="2" to-layer="396" to-port="0" />
    <edge from-layer="393" from-port="1" to-layer="397" to-port="0" />
    <edge from-layer="396" from-port="1" to-layer="397" to-port="1" />
    <edge from-layer="392" from-port="2" to-layer="398" to-port="0" />
    <edge from-layer="397" from-port="2" to-layer="398" to-port="1" />
    <edge from-layer="398" from-port="2" to-layer="400" to-port="0" />
    <edge from-layer="399" from-port="1" to-layer="400" to-port="1" />
    <edge from-layer="400" from-port="2" to-layer="402" to-port="0" />
    <edge from-layer="401" from-port="1" to-layer="402" to-port="1" />
    <edge from-layer="189" from-port="1" to-layer="404" to-port="0" />
    <edge from-layer="403" from-port="1" to-layer="404" to-port="1" />
    <edge from-layer="404" from-port="2" to-layer="406" to-port="0" />
    <edge from-layer="405" from-port="1" to-layer="406" to-port="1" />
    <edge from-layer="406" from-port="2" to-layer="407" to-port="0" />
    <edge from-layer="407" from-port="1" to-layer="409" to-port="0" />
    <edge from-layer="408" from-port="1" to-layer="409" to-port="1" />
    <edge from-layer="409" from-port="2" to-layer="411" to-port="0" />
    <edge from-layer="410" from-port="1" to-layer="411" to-port="1" />
    <edge from-layer="411" from-port="2" to-layer="413" to-port="0" />
    <edge from-layer="412" from-port="1" to-layer="413" to-port="1" />
    <edge from-layer="413" from-port="2" to-layer="415" to-port="0" />
    <edge from-layer="414" from-port="1" to-layer="415" to-port="1" />
    <edge from-layer="275" from-port="1" to-layer="417" to-port="0" />
    <edge from-layer="416" from-port="1" to-layer="417" to-port="1" />
    <edge from-layer="417" from-port="2" to-layer="419" to-port="0" />
    <edge from-layer="418" from-port="1" to-layer="419" to-port="1" />
    <edge from-layer="419" from-port="2" to-layer="420" to-port="0" />
    <edge from-layer="420" from-port="1" to-layer="422" to-port="0" />
    <edge from-layer="421" from-port="1" to-layer="422" to-port="1" />
    <edge from-layer="422" from-port="2" to-layer="424" to-port="0" />
    <edge from-layer="423" from-port="1" to-layer="424" to-port="1" />
    <edge from-layer="424" from-port="2" to-layer="426" to-port="0" />
    <edge from-layer="425" from-port="1" to-layer="426" to-port="1" />
    <edge from-layer="426" from-port="2" to-layer="428" to-port="0" />
    <edge from-layer="427" from-port="1" to-layer="428" to-port="1" />
    <edge from-layer="298" from-port="1" to-layer="430" to-port="0" />
    <edge from-layer="429" from-port="1" to-layer="430" to-port="1" />
    <edge from-layer="430" from-port="2" to-layer="432" to-port="0" />
    <edge from-layer="431" from-port="1" to-layer="432" to-port="1" />
    <edge from-layer="432" from-port="2" to-layer="433" to-port="0" />
    <edge from-layer="433" from-port="1" to-layer="435" to-port="0" />
    <edge from-layer="434" from-port="1" to-layer="435" to-port="1" />
    <edge from-layer="435" from-port="2" to-layer="437" to-port="0" />
    <edge from-layer="436" from-port="1" to-layer="437" to-port="1" />
    <edge from-layer="437" from-port="2" to-layer="439" to-port="0" />
    <edge from-layer="438" from-port="1" to-layer="439" to-port="1" />
    <edge from-layer="439" from-port="2" to-layer="441" to-port="0" />
    <edge from-layer="440" from-port="1" to-layer="441" to-port="1" />
    <edge from-layer="321" from-port="1" to-layer="443" to-port="0" />
    <edge from-layer="442" from-port="1" to-layer="443" to-port="1" />
    <edge from-layer="443" from-port="2" to-layer="445" to-port="0" />
    <edge from-layer="444" from-port="1" to-layer="445" to-port="1" />
    <edge from-layer="445" from-port="2" to-layer="446" to-port="0" />
    <edge from-layer="446" from-port="1" to-layer="448" to-port="0" />
    <edge from-layer="447" from-port="1" to-layer="448" to-port="1" />
    <edge from-layer="448" from-port="2" to-layer="450" to-port="0" />
    <edge from-layer="449" from-port="1" to-layer="450" to-port="1" />
    <edge from-layer="450" from-port="2" to-layer="452" to-port="0" />
    <edge from-layer="451" from-port="1" to-layer="452" to-port="1" />
    <edge from-layer="452" from-port="2" to-layer="454" to-port="0" />
    <edge from-layer="453" from-port="1" to-layer="454" to-port="1" />
    <edge from-layer="344" from-port="1" to-layer="456" to-port="0" />
    <edge from-layer="455" from-port="1" to-layer="456" to-port="1" />
    <edge from-layer="456" from-port="2" to-layer="458" to-port="0" />
    <edge from-layer="457" from-port="1" to-layer="458" to-port="1" />
    <edge from-layer="458" from-port="2" to-layer="459" to-port="0" />
    <edge from-layer="459" from-port="1" to-layer="461" to-port="0" />
    <edge from-layer="460" from-port="1" to-layer="461" to-port="1" />
    <edge from-layer="461" from-port="2" to-layer="463" to-port="0" />
    <edge from-layer="462" from-port="1" to-layer="463" to-port="1" />
    <edge from-layer="463" from-port="2" to-layer="465" to-port="0" />
    <edge from-layer="464" from-port="1" to-layer="465" to-port="1" />
    <edge from-layer="465" from-port="2" to-layer="467" to-port="0" />
    <edge from-layer="466" from-port="1" to-layer="467" to-port="1" />
    <edge from-layer="367" from-port="1" to-layer="469" to-port="0" />
    <edge from-layer="468" from-port="1" to-layer="469" to-port="1" />
    <edge from-layer="469" from-port="2" to-layer="471" to-port="0" />
    <edge from-layer="470" from-port="1" to-layer="471" to-port="1" />
    <edge from-layer="471" from-port="2" to-layer="472" to-port="0" />
    <edge from-layer="472" from-port="1" to-layer="474" to-port="0" />
    <edge from-layer="473" from-port="1" to-layer="474" to-port="1" />
    <edge from-layer="474" from-port="2" to-layer="476" to-port="0" />
    <edge from-layer="475" from-port="1" to-layer="476" to-port="1" />
    <edge from-layer="476" from-port="2" to-layer="478" to-port="0" />
    <edge from-layer="477" from-port="1" to-layer="478" to-port="1" />
    <edge from-layer="478" from-port="2" to-layer="480" to-port="0" />
    <edge from-layer="479" from-port="1" to-layer="480" to-port="1" />
    <edge from-layer="415" from-port="2" to-layer="481" to-port="0" />
    <edge from-layer="428" from-port="2" to-layer="481" to-port="1" />
    <edge from-layer="441" from-port="2" to-layer="481" to-port="2" />
    <edge from-layer="454" from-port="2" to-layer="481" to-port="3" />
    <edge from-layer="467" from-port="2" to-layer="481" to-port="4" />
    <edge from-layer="480" from-port="2" to-layer="481" to-port="5" />
    <edge from-layer="481" from-port="6" to-layer="483" to-port="0" />
    <edge from-layer="482" from-port="1" to-layer="483" to-port="1" />
    <edge from-layer="483" from-port="2" to-layer="484" to-port="0" />
    <edge from-layer="484" from-port="1" to-layer="486" to-port="0" />
    <edge from-layer="485" from-port="1" to-layer="486" to-port="1" />
    <edge from-layer="486" from-port="2" to-layer="490" to-port="0" />
    <edge from-layer="487" from-port="1" to-layer="490" to-port="1" />
    <edge from-layer="488" from-port="1" to-layer="490" to-port="2" />
    <edge from-layer="489" from-port="1" to-layer="490" to-port="3" />
    <edge from-layer="490" from-port="4" to-layer="492" to-port="0" />
    <edge from-layer="491" from-port="1" to-layer="492" to-port="1" />
    <edge from-layer="492" from-port="2" to-layer="494" to-port="0" />
    <edge from-layer="493" from-port="1" to-layer="494" to-port="1" />
    <edge from-layer="402" from-port="2" to-layer="498" to-port="0" />
    <edge from-layer="494" from-port="2" to-layer="498" to-port="1" />
    <edge from-layer="495" from-port="1" to-layer="498" to-port="2" />
    <edge from-layer="496" from-port="1" to-layer="498" to-port="3" />
    <edge from-layer="497" from-port="1" to-layer="498" to-port="4" />
    <edge from-layer="498" from-port="5" to-layer="499" to-port="0" />
    <edge from-layer="499" from-port="1" to-layer="502" to-port="0" />
    <edge from-layer="500" from-port="1" to-layer="502" to-port="1" />
    <edge from-layer="501" from-port="1" to-layer="502" to-port="2" />
    <edge from-layer="502" from-port="4" to-layer="504" to-port="0" />
    <edge from-layer="503" from-port="1" to-layer="504" to-port="1" />
    <edge from-layer="402" from-port="2" to-layer="506" to-port="0" />
    <edge from-layer="504" from-port="2" to-layer="506" to-port="1" />
    <edge from-layer="505" from-port="1" to-layer="506" to-port="2" />
    <edge from-layer="506" from-port="3" to-layer="508" to-port="0" />
    <edge from-layer="507" from-port="1" to-layer="508" to-port="1" />
    <edge from-layer="509" from-port="1" to-layer="510" to-port="0" />
    <edge from-layer="508" from-port="3" to-layer="510" to-port="1" />
    <edge from-layer="508" from-port="2" to-layer="511" to-port="0" />
    <edge from-layer="510" from-port="2" to-layer="511" to-port="1" />
    <edge from-layer="508" from-port="2" to-layer="512" to-port="0" />
    <edge from-layer="510" from-port="2" to-layer="512" to-port="1" />
    <edge from-layer="511" from-port="2" to-layer="513" to-port="0" />
    <edge from-layer="512" from-port="2" to-layer="513" to-port="1" />
    <edge from-layer="513" from-port="2" to-layer="514" to-port="0" />
    <edge from-layer="492" from-port="2" to-layer="516" to-port="0" />
    <edge from-layer="515" from-port="1" to-layer="516" to-port="1" />
    <edge from-layer="516" from-port="3" to-layer="518" to-port="0" />
    <edge from-layer="504" from-port="2" to-layer="518" to-port="1" />
    <edge from-layer="517" from-port="1" to-layer="518" to-port="2" />
    <edge from-layer="518" from-port="3" to-layer="520" to-port="0" />
    <edge from-layer="519" from-port="1" to-layer="520" to-port="1" />
    <edge from-layer="520" from-port="2" to-layer="521" to-port="0" />
    <edge from-layer="494" from-port="2" to-layer="523" to-port="0" />
    <edge from-layer="504" from-port="2" to-layer="523" to-port="1" />
    <edge from-layer="522" from-port="1" to-layer="523" to-port="2" />
    <edge from-layer="523" from-port="3" to-layer="524" to-port="0" />
    <edge from-layer="519" from-port="1" to-layer="524" to-port="1" />
    <edge from-layer="524" from-port="2" to-layer="525" to-port="0" />
  </edges>
  <meta_data>
    <MO_version value="2020.1.0-61-gd349c3ba4a" />
    <cli_parameters>
      <blobs_as_inputs value="True" />
      <caffe_parser_path value="DIR" />
      <data_type value="float" />
      <disable_nhwc_to_nchw value="False" />
      <disable_omitting_optional value="False" />
      <disable_resnet_optimization value="False" />
      <enable_concat_optimization value="False" />
      <enable_flattening_nested_params value="False" />
      <enable_ssd_gluoncv value="False" />
      <extensions value="DIR" />
      <framework value="onnx" />
      <freeze_placeholder_with_value value="{}" />
      <generate_deprecated_IR_V2 value="False" />
      <generate_deprecated_IR_V7 value="False" />
      <generate_experimental_IR_V10 value="True" />
      <input_model value="DIR/mobilenetv2ssdlitev2_pytorch.onnx" />
      <input_model_is_text value="False" />
      <k value="DIR/CustomLayersMapping.xml" />
      <keep_quantize_ops_in_IR value="True" />
      <keep_shape_ops value="False" />
      <legacy_mxnet_model value="False" />
      <log_level value="ERROR" />
      <mean_scale_values value="{}" />
      <mean_values value="()" />
      <model_name value="mobilenetv2ssdlitev2_pytorch" />
      <move_to_preprocess value="False" />
      <output_dir value="DIR" />
      <placeholder_data_types value="{}" />
      <progress value="False" />
      <remove_memory value="False" />
      <remove_output_softmax value="False" />
      <reverse_input_channels value="False" />
      <save_params_from_nd value="False" />
      <scale_values value="()" />
      <silent value="False" />
      <stream_output value="False" />
      <unset unset_cli_parameters="batch, counts, disable_fusing, disable_gfusing, finegrain_fusing, input, input_checkpoint, input_meta_graph, input_proto, input_shape, input_symbol, mean_file, mean_file_offsets, nd_prefix_name, output, placeholder_shapes, pretrained_model_name, saved_model_dir, saved_model_tags, scale, tensorboard_logdir, tensorflow_custom_layer_libraries, tensorflow_custom_operations_config_update, tensorflow_object_detection_api_pipeline_config, tensorflow_operation_patterns, tensorflow_subgraph_patterns, tensorflow_use_custom_operations_config, transformations_config" />
    </cli_parameters>
  </meta_data>
</net>